{"modelTopology": {"backend": "tensorflow", "model_config": {"class_name": "Model", "config": {"input_layers": [["input_1", 0, 0]], "name": "model", "layers": [{"class_name": "InputLayer", "name": "input_1", "inbound_nodes": [], "config": {"name": "input_1", "sparse": false, "dtype": "float32", "batch_input_shape": [null, 400, 400, 1]}}, {"class_name": "Conv2D", "name": "conv2d", "inbound_nodes": [[["input_1", 0, 0, {}]]], "config": {"dilation_rate": [1, 1], "trainable": true, "strides": [2, 2], "filters": 64, "bias_constraint": null, "bias_initializer": {"class_name": "Zeros", "config": {"dtype": "float32"}}, "bias_regularizer": null, "kernel_constraint": null, "padding": "same", "data_format": "channels_last", "activation": "linear", "name": "conv2d", "kernel_initializer": {"class_name": "VarianceScaling", "config": {"seed": null, "scale": 2.0, "dtype": "float32", "distribution": "normal", "mode": "fan_in"}}, "kernel_size": [7, 7], "kernel_regularizer": {"class_name": "L1L2", "config": {"l2": 9.999999747378752e-05, "l1": 0.0}}, "use_bias": true, "activity_regularizer": null, "dtype": "float32"}}, {"class_name": "BatchNormalization", "name": "batch_normalization", "inbound_nodes": [[["conv2d", 0, 0, {}]]], "config": {"momentum": 0.99, "trainable": true, "epsilon": 0.001, "dtype": "float32", "moving_variance_initializer": {"class_name": "Ones", "config": {"dtype": "float32"}}, "moving_mean_initializer": {"class_name": "Zeros", "config": {"dtype": "float32"}}, "scale": true, "axis": [3], "gamma_constraint": null, "beta_initializer": {"class_name": "Zeros", "config": {"dtype": "float32"}}, "name": "batch_normalization", "beta_regularizer": null, "center": true, "beta_constraint": null, "gamma_initializer": {"class_name": "Ones", "config": {"dtype": "float32"}}, "gamma_regularizer": null}}, {"class_name": "Activation", "name": "activation", "inbound_nodes": [[["batch_normalization", 0, 0, {}]]], "config": {"trainable": true, "name": "activation", "dtype": "float32", "activation": "relu"}}, {"class_name": "MaxPooling2D", "name": "max_pooling2d", "inbound_nodes": [[["activation", 0, 0, {}]]], "config": {"trainable": true, "name": "max_pooling2d", "dtype": "float32", "strides": [2, 2], "padding": "same", "data_format": "channels_last", "pool_size": [3, 3]}}, {"class_name": "Conv2D", "name": "conv2d_1", "inbound_nodes": [[["max_pooling2d", 0, 0, {}]]], "config": {"dilation_rate": [1, 1], "trainable": true, "strides": [1, 1], "filters": 64, "bias_constraint": null, "bias_initializer": {"class_name": "Zeros", "config": {"dtype": "float32"}}, "bias_regularizer": null, "kernel_constraint": null, "padding": "same", "data_format": "channels_last", "activation": "linear", "name": "conv2d_1", "kernel_initializer": {"class_name": "VarianceScaling", "config": {"seed": null, "scale": 2.0, "dtype": "float32", "distribution": "normal", "mode": "fan_in"}}, "kernel_size": [1, 1], "kernel_regularizer": {"class_name": "L1L2", "config": {"l2": 9.999999747378752e-05, "l1": 0.0}}, "use_bias": true, "activity_regularizer": null, "dtype": "float32"}}, {"class_name": "BatchNormalization", "name": "batch_normalization_1", "inbound_nodes": [[["conv2d_1", 0, 0, {}]]], "config": {"momentum": 0.99, "trainable": true, "epsilon": 0.001, "dtype": "float32", "moving_variance_initializer": {"class_name": "Ones", "config": {"dtype": "float32"}}, "moving_mean_initializer": {"class_name": "Zeros", "config": {"dtype": "float32"}}, "scale": true, "axis": [3], "gamma_constraint": null, "beta_initializer": {"class_name": "Zeros", "config": {"dtype": "float32"}}, "name": "batch_normalization_1", "beta_regularizer": null, "center": true, "beta_constraint": null, "gamma_initializer": {"class_name": "Ones", "config": {"dtype": "float32"}}, "gamma_regularizer": null}}, {"class_name": "Activation", "name": "activation_1", "inbound_nodes": [[["batch_normalization_1", 0, 0, {}]]], "config": {"trainable": true, "name": "activation_1", "dtype": "float32", "activation": "relu"}}, {"class_name": "Conv2D", "name": "conv2d_2", "inbound_nodes": [[["activation_1", 0, 0, {}]]], "config": {"dilation_rate": [1, 1], "trainable": true, "strides": [1, 1], "filters": 64, "bias_constraint": null, "bias_initializer": {"class_name": "Zeros", "config": {"dtype": "float32"}}, "bias_regularizer": null, "kernel_constraint": null, "padding": "same", "data_format": "channels_last", "activation": "linear", "name": "conv2d_2", "kernel_initializer": {"class_name": "VarianceScaling", "config": {"seed": null, "scale": 2.0, "dtype": "float32", "distribution": "normal", "mode": "fan_in"}}, "kernel_size": [3, 3], "kernel_regularizer": {"class_name": "L1L2", "config": {"l2": 9.999999747378752e-05, "l1": 0.0}}, "use_bias": true, "activity_regularizer": null, "dtype": "float32"}}, {"class_name": "BatchNormalization", "name": "batch_normalization_2", "inbound_nodes": [[["conv2d_2", 0, 0, {}]]], "config": {"momentum": 0.99, "trainable": true, "epsilon": 0.001, "dtype": "float32", "moving_variance_initializer": {"class_name": "Ones", "config": {"dtype": "float32"}}, "moving_mean_initializer": {"class_name": "Zeros", "config": {"dtype": "float32"}}, "scale": true, "axis": [3], "gamma_constraint": null, "beta_initializer": {"class_name": "Zeros", "config": {"dtype": "float32"}}, "name": "batch_normalization_2", "beta_regularizer": null, "center": true, "beta_constraint": null, "gamma_initializer": {"class_name": "Ones", "config": {"dtype": "float32"}}, "gamma_regularizer": null}}, {"class_name": "Activation", "name": "activation_2", "inbound_nodes": [[["batch_normalization_2", 0, 0, {}]]], "config": {"trainable": true, "name": "activation_2", "dtype": "float32", "activation": "relu"}}, {"class_name": "Conv2D", "name": "conv2d_4", "inbound_nodes": [[["max_pooling2d", 0, 0, {}]]], "config": {"dilation_rate": [1, 1], "trainable": true, "strides": [1, 1], "filters": 256, "bias_constraint": null, "bias_initializer": {"class_name": "Zeros", "config": {"dtype": "float32"}}, "bias_regularizer": null, "kernel_constraint": null, "padding": "valid", "data_format": "channels_last", "activation": "linear", "name": "conv2d_4", "kernel_initializer": {"class_name": "VarianceScaling", "config": {"seed": null, "scale": 2.0, "dtype": "float32", "distribution": "normal", "mode": "fan_in"}}, "kernel_size": [1, 1], "kernel_regularizer": {"class_name": "L1L2", "config": {"l2": 9.999999747378752e-05, "l1": 0.0}}, "use_bias": true, "activity_regularizer": null, "dtype": "float32"}}, {"class_name": "Conv2D", "name": "conv2d_3", "inbound_nodes": [[["activation_2", 0, 0, {}]]], "config": {"dilation_rate": [1, 1], "trainable": true, "strides": [1, 1], "filters": 256, "bias_constraint": null, "bias_initializer": {"class_name": "Zeros", "config": {"dtype": "float32"}}, "bias_regularizer": null, "kernel_constraint": null, "padding": "same", "data_format": "channels_last", "activation": "linear", "name": "conv2d_3", "kernel_initializer": {"class_name": "VarianceScaling", "config": {"seed": null, "scale": 2.0, "dtype": "float32", "distribution": "normal", "mode": "fan_in"}}, "kernel_size": [1, 1], "kernel_regularizer": {"class_name": "L1L2", "config": {"l2": 9.999999747378752e-05, "l1": 0.0}}, "use_bias": true, "activity_regularizer": null, "dtype": "float32"}}, {"class_name": "Add", "name": "add", "inbound_nodes": [[["conv2d_4", 0, 0, {}], ["conv2d_3", 0, 0, {}]]], "config": {"trainable": true, "name": "add", "dtype": "float32"}}, {"class_name": "BatchNormalization", "name": "batch_normalization_3", "inbound_nodes": [[["add", 0, 0, {}]]], "config": {"momentum": 0.99, "trainable": true, "epsilon": 0.001, "dtype": "float32", "moving_variance_initializer": {"class_name": "Ones", "config": {"dtype": "float32"}}, "moving_mean_initializer": {"class_name": "Zeros", "config": {"dtype": "float32"}}, "scale": true, "axis": [3], "gamma_constraint": null, "beta_initializer": {"class_name": "Zeros", "config": {"dtype": "float32"}}, "name": "batch_normalization_3", "beta_regularizer": null, "center": true, "beta_constraint": null, "gamma_initializer": {"class_name": "Ones", "config": {"dtype": "float32"}}, "gamma_regularizer": null}}, {"class_name": "Activation", "name": "activation_3", "inbound_nodes": [[["batch_normalization_3", 0, 0, {}]]], "config": {"trainable": true, "name": "activation_3", "dtype": "float32", "activation": "relu"}}, {"class_name": "Conv2D", "name": "conv2d_5", "inbound_nodes": [[["activation_3", 0, 0, {}]]], "config": {"dilation_rate": [1, 1], "trainable": true, "strides": [1, 1], "filters": 64, "bias_constraint": null, "bias_initializer": {"class_name": "Zeros", "config": {"dtype": "float32"}}, "bias_regularizer": null, "kernel_constraint": null, "padding": "same", "data_format": "channels_last", "activation": "linear", "name": "conv2d_5", "kernel_initializer": {"class_name": "VarianceScaling", "config": {"seed": null, "scale": 2.0, "dtype": "float32", "distribution": "normal", "mode": "fan_in"}}, "kernel_size": [1, 1], "kernel_regularizer": {"class_name": "L1L2", "config": {"l2": 9.999999747378752e-05, "l1": 0.0}}, "use_bias": true, "activity_regularizer": null, "dtype": "float32"}}, {"class_name": "BatchNormalization", "name": "batch_normalization_4", "inbound_nodes": [[["conv2d_5", 0, 0, {}]]], "config": {"momentum": 0.99, "trainable": true, "epsilon": 0.001, "dtype": "float32", "moving_variance_initializer": {"class_name": "Ones", "config": {"dtype": "float32"}}, "moving_mean_initializer": {"class_name": "Zeros", "config": {"dtype": "float32"}}, "scale": true, "axis": [3], "gamma_constraint": null, "beta_initializer": {"class_name": "Zeros", "config": {"dtype": "float32"}}, "name": "batch_normalization_4", "beta_regularizer": null, "center": true, "beta_constraint": null, "gamma_initializer": {"class_name": "Ones", "config": {"dtype": "float32"}}, "gamma_regularizer": null}}, {"class_name": "Activation", "name": "activation_4", "inbound_nodes": [[["batch_normalization_4", 0, 0, {}]]], "config": {"trainable": true, "name": "activation_4", "dtype": "float32", "activation": "relu"}}, {"class_name": "Conv2D", "name": "conv2d_6", "inbound_nodes": [[["activation_4", 0, 0, {}]]], "config": {"dilation_rate": [1, 1], "trainable": true, "strides": [1, 1], "filters": 64, "bias_constraint": null, "bias_initializer": {"class_name": "Zeros", "config": {"dtype": "float32"}}, "bias_regularizer": null, "kernel_constraint": null, "padding": "same", "data_format": "channels_last", "activation": "linear", "name": "conv2d_6", "kernel_initializer": {"class_name": "VarianceScaling", "config": {"seed": null, "scale": 2.0, "dtype": "float32", "distribution": "normal", "mode": "fan_in"}}, "kernel_size": [3, 3], "kernel_regularizer": {"class_name": "L1L2", "config": {"l2": 9.999999747378752e-05, "l1": 0.0}}, "use_bias": true, "activity_regularizer": null, "dtype": "float32"}}, {"class_name": "BatchNormalization", "name": "batch_normalization_5", "inbound_nodes": [[["conv2d_6", 0, 0, {}]]], "config": {"momentum": 0.99, "trainable": true, "epsilon": 0.001, "dtype": "float32", "moving_variance_initializer": {"class_name": "Ones", "config": {"dtype": "float32"}}, "moving_mean_initializer": {"class_name": "Zeros", "config": {"dtype": "float32"}}, "scale": true, "axis": [3], "gamma_constraint": null, "beta_initializer": {"class_name": "Zeros", "config": {"dtype": "float32"}}, "name": "batch_normalization_5", "beta_regularizer": null, "center": true, "beta_constraint": null, "gamma_initializer": {"class_name": "Ones", "config": {"dtype": "float32"}}, "gamma_regularizer": null}}, {"class_name": "Activation", "name": "activation_5", "inbound_nodes": [[["batch_normalization_5", 0, 0, {}]]], "config": {"trainable": true, "name": "activation_5", "dtype": "float32", "activation": "relu"}}, {"class_name": "Conv2D", "name": "conv2d_7", "inbound_nodes": [[["activation_5", 0, 0, {}]]], "config": {"dilation_rate": [1, 1], "trainable": true, "strides": [1, 1], "filters": 256, "bias_constraint": null, "bias_initializer": {"class_name": "Zeros", "config": {"dtype": "float32"}}, "bias_regularizer": null, "kernel_constraint": null, "padding": "same", "data_format": "channels_last", "activation": "linear", "name": "conv2d_7", "kernel_initializer": {"class_name": "VarianceScaling", "config": {"seed": null, "scale": 2.0, "dtype": "float32", "distribution": "normal", "mode": "fan_in"}}, "kernel_size": [1, 1], "kernel_regularizer": {"class_name": "L1L2", "config": {"l2": 9.999999747378752e-05, "l1": 0.0}}, "use_bias": true, "activity_regularizer": null, "dtype": "float32"}}, {"class_name": "Add", "name": "add_1", "inbound_nodes": [[["add", 0, 0, {}], ["conv2d_7", 0, 0, {}]]], "config": {"trainable": true, "name": "add_1", "dtype": "float32"}}, {"class_name": "BatchNormalization", "name": "batch_normalization_6", "inbound_nodes": [[["add_1", 0, 0, {}]]], "config": {"momentum": 0.99, "trainable": true, "epsilon": 0.001, "dtype": "float32", "moving_variance_initializer": {"class_name": "Ones", "config": {"dtype": "float32"}}, "moving_mean_initializer": {"class_name": "Zeros", "config": {"dtype": "float32"}}, "scale": true, "axis": [3], "gamma_constraint": null, "beta_initializer": {"class_name": "Zeros", "config": {"dtype": "float32"}}, "name": "batch_normalization_6", "beta_regularizer": null, "center": true, "beta_constraint": null, "gamma_initializer": {"class_name": "Ones", "config": {"dtype": "float32"}}, "gamma_regularizer": null}}, {"class_name": "Activation", "name": "activation_6", "inbound_nodes": [[["batch_normalization_6", 0, 0, {}]]], "config": {"trainable": true, "name": "activation_6", "dtype": "float32", "activation": "relu"}}, {"class_name": "Conv2D", "name": "conv2d_8", "inbound_nodes": [[["activation_6", 0, 0, {}]]], "config": {"dilation_rate": [1, 1], "trainable": true, "strides": [1, 1], "filters": 64, "bias_constraint": null, "bias_initializer": {"class_name": "Zeros", "config": {"dtype": "float32"}}, "bias_regularizer": null, "kernel_constraint": null, "padding": "same", "data_format": "channels_last", "activation": "linear", "name": "conv2d_8", "kernel_initializer": {"class_name": "VarianceScaling", "config": {"seed": null, "scale": 2.0, "dtype": "float32", "distribution": "normal", "mode": "fan_in"}}, "kernel_size": [1, 1], "kernel_regularizer": {"class_name": "L1L2", "config": {"l2": 9.999999747378752e-05, "l1": 0.0}}, "use_bias": true, "activity_regularizer": null, "dtype": "float32"}}, {"class_name": "BatchNormalization", "name": "batch_normalization_7", "inbound_nodes": [[["conv2d_8", 0, 0, {}]]], "config": {"momentum": 0.99, "trainable": true, "epsilon": 0.001, "dtype": "float32", "moving_variance_initializer": {"class_name": "Ones", "config": {"dtype": "float32"}}, "moving_mean_initializer": {"class_name": "Zeros", "config": {"dtype": "float32"}}, "scale": true, "axis": [3], "gamma_constraint": null, "beta_initializer": {"class_name": "Zeros", "config": {"dtype": "float32"}}, "name": "batch_normalization_7", "beta_regularizer": null, "center": true, "beta_constraint": null, "gamma_initializer": {"class_name": "Ones", "config": {"dtype": "float32"}}, "gamma_regularizer": null}}, {"class_name": "Activation", "name": "activation_7", "inbound_nodes": [[["batch_normalization_7", 0, 0, {}]]], "config": {"trainable": true, "name": "activation_7", "dtype": "float32", "activation": "relu"}}, {"class_name": "Conv2D", "name": "conv2d_9", "inbound_nodes": [[["activation_7", 0, 0, {}]]], "config": {"dilation_rate": [1, 1], "trainable": true, "strides": [1, 1], "filters": 64, "bias_constraint": null, "bias_initializer": {"class_name": "Zeros", "config": {"dtype": "float32"}}, "bias_regularizer": null, "kernel_constraint": null, "padding": "same", "data_format": "channels_last", "activation": "linear", "name": "conv2d_9", "kernel_initializer": {"class_name": "VarianceScaling", "config": {"seed": null, "scale": 2.0, "dtype": "float32", "distribution": "normal", "mode": "fan_in"}}, "kernel_size": [3, 3], "kernel_regularizer": {"class_name": "L1L2", "config": {"l2": 9.999999747378752e-05, "l1": 0.0}}, "use_bias": true, "activity_regularizer": null, "dtype": "float32"}}, {"class_name": "BatchNormalization", "name": "batch_normalization_8", "inbound_nodes": [[["conv2d_9", 0, 0, {}]]], "config": {"momentum": 0.99, "trainable": true, "epsilon": 0.001, "dtype": "float32", "moving_variance_initializer": {"class_name": "Ones", "config": {"dtype": "float32"}}, "moving_mean_initializer": {"class_name": "Zeros", "config": {"dtype": "float32"}}, "scale": true, "axis": [3], "gamma_constraint": null, "beta_initializer": {"class_name": "Zeros", "config": {"dtype": "float32"}}, "name": "batch_normalization_8", "beta_regularizer": null, "center": true, "beta_constraint": null, "gamma_initializer": {"class_name": "Ones", "config": {"dtype": "float32"}}, "gamma_regularizer": null}}, {"class_name": "Activation", "name": "activation_8", "inbound_nodes": [[["batch_normalization_8", 0, 0, {}]]], "config": {"trainable": true, "name": "activation_8", "dtype": "float32", "activation": "relu"}}, {"class_name": "Conv2D", "name": "conv2d_10", "inbound_nodes": [[["activation_8", 0, 0, {}]]], "config": {"dilation_rate": [1, 1], "trainable": true, "strides": [1, 1], "filters": 256, "bias_constraint": null, "bias_initializer": {"class_name": "Zeros", "config": {"dtype": "float32"}}, "bias_regularizer": null, "kernel_constraint": null, "padding": "same", "data_format": "channels_last", "activation": "linear", "name": "conv2d_10", "kernel_initializer": {"class_name": "VarianceScaling", "config": {"seed": null, "scale": 2.0, "dtype": "float32", "distribution": "normal", "mode": "fan_in"}}, "kernel_size": [1, 1], "kernel_regularizer": {"class_name": "L1L2", "config": {"l2": 9.999999747378752e-05, "l1": 0.0}}, "use_bias": true, "activity_regularizer": null, "dtype": "float32"}}, {"class_name": "Add", "name": "add_2", "inbound_nodes": [[["add_1", 0, 0, {}], ["conv2d_10", 0, 0, {}]]], "config": {"trainable": true, "name": "add_2", "dtype": "float32"}}, {"class_name": "BatchNormalization", "name": "batch_normalization_9", "inbound_nodes": [[["add_2", 0, 0, {}]]], "config": {"momentum": 0.99, "trainable": true, "epsilon": 0.001, "dtype": "float32", "moving_variance_initializer": {"class_name": "Ones", "config": {"dtype": "float32"}}, "moving_mean_initializer": {"class_name": "Zeros", "config": {"dtype": "float32"}}, "scale": true, "axis": [3], "gamma_constraint": null, "beta_initializer": {"class_name": "Zeros", "config": {"dtype": "float32"}}, "name": "batch_normalization_9", "beta_regularizer": null, "center": true, "beta_constraint": null, "gamma_initializer": {"class_name": "Ones", "config": {"dtype": "float32"}}, "gamma_regularizer": null}}, {"class_name": "Activation", "name": "activation_9", "inbound_nodes": [[["batch_normalization_9", 0, 0, {}]]], "config": {"trainable": true, "name": "activation_9", "dtype": "float32", "activation": "relu"}}, {"class_name": "Conv2D", "name": "conv2d_11", "inbound_nodes": [[["activation_9", 0, 0, {}]]], "config": {"dilation_rate": [1, 1], "trainable": true, "strides": [2, 2], "filters": 128, "bias_constraint": null, "bias_initializer": {"class_name": "Zeros", "config": {"dtype": "float32"}}, "bias_regularizer": null, "kernel_constraint": null, "padding": "same", "data_format": "channels_last", "activation": "linear", "name": "conv2d_11", "kernel_initializer": {"class_name": "VarianceScaling", "config": {"seed": null, "scale": 2.0, "dtype": "float32", "distribution": "normal", "mode": "fan_in"}}, "kernel_size": [1, 1], "kernel_regularizer": {"class_name": "L1L2", "config": {"l2": 9.999999747378752e-05, "l1": 0.0}}, "use_bias": true, "activity_regularizer": null, "dtype": "float32"}}, {"class_name": "BatchNormalization", "name": "batch_normalization_10", "inbound_nodes": [[["conv2d_11", 0, 0, {}]]], "config": {"momentum": 0.99, "trainable": true, "epsilon": 0.001, "dtype": "float32", "moving_variance_initializer": {"class_name": "Ones", "config": {"dtype": "float32"}}, "moving_mean_initializer": {"class_name": "Zeros", "config": {"dtype": "float32"}}, "scale": true, "axis": [3], "gamma_constraint": null, "beta_initializer": {"class_name": "Zeros", "config": {"dtype": "float32"}}, "name": "batch_normalization_10", "beta_regularizer": null, "center": true, "beta_constraint": null, "gamma_initializer": {"class_name": "Ones", "config": {"dtype": "float32"}}, "gamma_regularizer": null}}, {"class_name": "Activation", "name": "activation_10", "inbound_nodes": [[["batch_normalization_10", 0, 0, {}]]], "config": {"trainable": true, "name": "activation_10", "dtype": "float32", "activation": "relu"}}, {"class_name": "Conv2D", "name": "conv2d_12", "inbound_nodes": [[["activation_10", 0, 0, {}]]], "config": {"dilation_rate": [1, 1], "trainable": true, "strides": [1, 1], "filters": 128, "bias_constraint": null, "bias_initializer": {"class_name": "Zeros", "config": {"dtype": "float32"}}, "bias_regularizer": null, "kernel_constraint": null, "padding": "same", "data_format": "channels_last", "activation": "linear", "name": "conv2d_12", "kernel_initializer": {"class_name": "VarianceScaling", "config": {"seed": null, "scale": 2.0, "dtype": "float32", "distribution": "normal", "mode": "fan_in"}}, "kernel_size": [3, 3], "kernel_regularizer": {"class_name": "L1L2", "config": {"l2": 9.999999747378752e-05, "l1": 0.0}}, "use_bias": true, "activity_regularizer": null, "dtype": "float32"}}, {"class_name": "BatchNormalization", "name": "batch_normalization_11", "inbound_nodes": [[["conv2d_12", 0, 0, {}]]], "config": {"momentum": 0.99, "trainable": true, "epsilon": 0.001, "dtype": "float32", "moving_variance_initializer": {"class_name": "Ones", "config": {"dtype": "float32"}}, "moving_mean_initializer": {"class_name": "Zeros", "config": {"dtype": "float32"}}, "scale": true, "axis": [3], "gamma_constraint": null, "beta_initializer": {"class_name": "Zeros", "config": {"dtype": "float32"}}, "name": "batch_normalization_11", "beta_regularizer": null, "center": true, "beta_constraint": null, "gamma_initializer": {"class_name": "Ones", "config": {"dtype": "float32"}}, "gamma_regularizer": null}}, {"class_name": "Activation", "name": "activation_11", "inbound_nodes": [[["batch_normalization_11", 0, 0, {}]]], "config": {"trainable": true, "name": "activation_11", "dtype": "float32", "activation": "relu"}}, {"class_name": "Conv2D", "name": "conv2d_14", "inbound_nodes": [[["add_2", 0, 0, {}]]], "config": {"dilation_rate": [1, 1], "trainable": true, "strides": [2, 2], "filters": 512, "bias_constraint": null, "bias_initializer": {"class_name": "Zeros", "config": {"dtype": "float32"}}, "bias_regularizer": null, "kernel_constraint": null, "padding": "valid", "data_format": "channels_last", "activation": "linear", "name": "conv2d_14", "kernel_initializer": {"class_name": "VarianceScaling", "config": {"seed": null, "scale": 2.0, "dtype": "float32", "distribution": "normal", "mode": "fan_in"}}, "kernel_size": [1, 1], "kernel_regularizer": {"class_name": "L1L2", "config": {"l2": 9.999999747378752e-05, "l1": 0.0}}, "use_bias": true, "activity_regularizer": null, "dtype": "float32"}}, {"class_name": "Conv2D", "name": "conv2d_13", "inbound_nodes": [[["activation_11", 0, 0, {}]]], "config": {"dilation_rate": [1, 1], "trainable": true, "strides": [1, 1], "filters": 512, "bias_constraint": null, "bias_initializer": {"class_name": "Zeros", "config": {"dtype": "float32"}}, "bias_regularizer": null, "kernel_constraint": null, "padding": "same", "data_format": "channels_last", "activation": "linear", "name": "conv2d_13", "kernel_initializer": {"class_name": "VarianceScaling", "config": {"seed": null, "scale": 2.0, "dtype": "float32", "distribution": "normal", "mode": "fan_in"}}, "kernel_size": [1, 1], "kernel_regularizer": {"class_name": "L1L2", "config": {"l2": 9.999999747378752e-05, "l1": 0.0}}, "use_bias": true, "activity_regularizer": null, "dtype": "float32"}}, {"class_name": "Add", "name": "add_3", "inbound_nodes": [[["conv2d_14", 0, 0, {}], ["conv2d_13", 0, 0, {}]]], "config": {"trainable": true, "name": "add_3", "dtype": "float32"}}, {"class_name": "BatchNormalization", "name": "batch_normalization_12", "inbound_nodes": [[["add_3", 0, 0, {}]]], "config": {"momentum": 0.99, "trainable": true, "epsilon": 0.001, "dtype": "float32", "moving_variance_initializer": {"class_name": "Ones", "config": {"dtype": "float32"}}, "moving_mean_initializer": {"class_name": "Zeros", "config": {"dtype": "float32"}}, "scale": true, "axis": [3], "gamma_constraint": null, "beta_initializer": {"class_name": "Zeros", "config": {"dtype": "float32"}}, "name": "batch_normalization_12", "beta_regularizer": null, "center": true, "beta_constraint": null, "gamma_initializer": {"class_name": "Ones", "config": {"dtype": "float32"}}, "gamma_regularizer": null}}, {"class_name": "Activation", "name": "activation_12", "inbound_nodes": [[["batch_normalization_12", 0, 0, {}]]], "config": {"trainable": true, "name": "activation_12", "dtype": "float32", "activation": "relu"}}, {"class_name": "Conv2D", "name": "conv2d_15", "inbound_nodes": [[["activation_12", 0, 0, {}]]], "config": {"dilation_rate": [1, 1], "trainable": true, "strides": [1, 1], "filters": 128, "bias_constraint": null, "bias_initializer": {"class_name": "Zeros", "config": {"dtype": "float32"}}, "bias_regularizer": null, "kernel_constraint": null, "padding": "same", "data_format": "channels_last", "activation": "linear", "name": "conv2d_15", "kernel_initializer": {"class_name": "VarianceScaling", "config": {"seed": null, "scale": 2.0, "dtype": "float32", "distribution": "normal", "mode": "fan_in"}}, "kernel_size": [1, 1], "kernel_regularizer": {"class_name": "L1L2", "config": {"l2": 9.999999747378752e-05, "l1": 0.0}}, "use_bias": true, "activity_regularizer": null, "dtype": "float32"}}, {"class_name": "BatchNormalization", "name": "batch_normalization_13", "inbound_nodes": [[["conv2d_15", 0, 0, {}]]], "config": {"momentum": 0.99, "trainable": true, "epsilon": 0.001, "dtype": "float32", "moving_variance_initializer": {"class_name": "Ones", "config": {"dtype": "float32"}}, "moving_mean_initializer": {"class_name": "Zeros", "config": {"dtype": "float32"}}, "scale": true, "axis": [3], "gamma_constraint": null, "beta_initializer": {"class_name": "Zeros", "config": {"dtype": "float32"}}, "name": "batch_normalization_13", "beta_regularizer": null, "center": true, "beta_constraint": null, "gamma_initializer": {"class_name": "Ones", "config": {"dtype": "float32"}}, "gamma_regularizer": null}}, {"class_name": "Activation", "name": "activation_13", "inbound_nodes": [[["batch_normalization_13", 0, 0, {}]]], "config": {"trainable": true, "name": "activation_13", "dtype": "float32", "activation": "relu"}}, {"class_name": "Conv2D", "name": "conv2d_16", "inbound_nodes": [[["activation_13", 0, 0, {}]]], "config": {"dilation_rate": [1, 1], "trainable": true, "strides": [1, 1], "filters": 128, "bias_constraint": null, "bias_initializer": {"class_name": "Zeros", "config": {"dtype": "float32"}}, "bias_regularizer": null, "kernel_constraint": null, "padding": "same", "data_format": "channels_last", "activation": "linear", "name": "conv2d_16", "kernel_initializer": {"class_name": "VarianceScaling", "config": {"seed": null, "scale": 2.0, "dtype": "float32", "distribution": "normal", "mode": "fan_in"}}, "kernel_size": [3, 3], "kernel_regularizer": {"class_name": "L1L2", "config": {"l2": 9.999999747378752e-05, "l1": 0.0}}, "use_bias": true, "activity_regularizer": null, "dtype": "float32"}}, {"class_name": "BatchNormalization", "name": "batch_normalization_14", "inbound_nodes": [[["conv2d_16", 0, 0, {}]]], "config": {"momentum": 0.99, "trainable": true, "epsilon": 0.001, "dtype": "float32", "moving_variance_initializer": {"class_name": "Ones", "config": {"dtype": "float32"}}, "moving_mean_initializer": {"class_name": "Zeros", "config": {"dtype": "float32"}}, "scale": true, "axis": [3], "gamma_constraint": null, "beta_initializer": {"class_name": "Zeros", "config": {"dtype": "float32"}}, "name": "batch_normalization_14", "beta_regularizer": null, "center": true, "beta_constraint": null, "gamma_initializer": {"class_name": "Ones", "config": {"dtype": "float32"}}, "gamma_regularizer": null}}, {"class_name": "Activation", "name": "activation_14", "inbound_nodes": [[["batch_normalization_14", 0, 0, {}]]], "config": {"trainable": true, "name": "activation_14", "dtype": "float32", "activation": "relu"}}, {"class_name": "Conv2D", "name": "conv2d_17", "inbound_nodes": [[["activation_14", 0, 0, {}]]], "config": {"dilation_rate": [1, 1], "trainable": true, "strides": [1, 1], "filters": 512, "bias_constraint": null, "bias_initializer": {"class_name": "Zeros", "config": {"dtype": "float32"}}, "bias_regularizer": null, "kernel_constraint": null, "padding": "same", "data_format": "channels_last", "activation": "linear", "name": "conv2d_17", "kernel_initializer": {"class_name": "VarianceScaling", "config": {"seed": null, "scale": 2.0, "dtype": "float32", "distribution": "normal", "mode": "fan_in"}}, "kernel_size": [1, 1], "kernel_regularizer": {"class_name": "L1L2", "config": {"l2": 9.999999747378752e-05, "l1": 0.0}}, "use_bias": true, "activity_regularizer": null, "dtype": "float32"}}, {"class_name": "Add", "name": "add_4", "inbound_nodes": [[["add_3", 0, 0, {}], ["conv2d_17", 0, 0, {}]]], "config": {"trainable": true, "name": "add_4", "dtype": "float32"}}, {"class_name": "BatchNormalization", "name": "batch_normalization_15", "inbound_nodes": [[["add_4", 0, 0, {}]]], "config": {"momentum": 0.99, "trainable": true, "epsilon": 0.001, "dtype": "float32", "moving_variance_initializer": {"class_name": "Ones", "config": {"dtype": "float32"}}, "moving_mean_initializer": {"class_name": "Zeros", "config": {"dtype": "float32"}}, "scale": true, "axis": [3], "gamma_constraint": null, "beta_initializer": {"class_name": "Zeros", "config": {"dtype": "float32"}}, "name": "batch_normalization_15", "beta_regularizer": null, "center": true, "beta_constraint": null, "gamma_initializer": {"class_name": "Ones", "config": {"dtype": "float32"}}, "gamma_regularizer": null}}, {"class_name": "Activation", "name": "activation_15", "inbound_nodes": [[["batch_normalization_15", 0, 0, {}]]], "config": {"trainable": true, "name": "activation_15", "dtype": "float32", "activation": "relu"}}, {"class_name": "Conv2D", "name": "conv2d_18", "inbound_nodes": [[["activation_15", 0, 0, {}]]], "config": {"dilation_rate": [1, 1], "trainable": true, "strides": [1, 1], "filters": 128, "bias_constraint": null, "bias_initializer": {"class_name": "Zeros", "config": {"dtype": "float32"}}, "bias_regularizer": null, "kernel_constraint": null, "padding": "same", "data_format": "channels_last", "activation": "linear", "name": "conv2d_18", "kernel_initializer": {"class_name": "VarianceScaling", "config": {"seed": null, "scale": 2.0, "dtype": "float32", "distribution": "normal", "mode": "fan_in"}}, "kernel_size": [1, 1], "kernel_regularizer": {"class_name": "L1L2", "config": {"l2": 9.999999747378752e-05, "l1": 0.0}}, "use_bias": true, "activity_regularizer": null, "dtype": "float32"}}, {"class_name": "BatchNormalization", "name": "batch_normalization_16", "inbound_nodes": [[["conv2d_18", 0, 0, {}]]], "config": {"momentum": 0.99, "trainable": true, "epsilon": 0.001, "dtype": "float32", "moving_variance_initializer": {"class_name": "Ones", "config": {"dtype": "float32"}}, "moving_mean_initializer": {"class_name": "Zeros", "config": {"dtype": "float32"}}, "scale": true, "axis": [3], "gamma_constraint": null, "beta_initializer": {"class_name": "Zeros", "config": {"dtype": "float32"}}, "name": "batch_normalization_16", "beta_regularizer": null, "center": true, "beta_constraint": null, "gamma_initializer": {"class_name": "Ones", "config": {"dtype": "float32"}}, "gamma_regularizer": null}}, {"class_name": "Activation", "name": "activation_16", "inbound_nodes": [[["batch_normalization_16", 0, 0, {}]]], "config": {"trainable": true, "name": "activation_16", "dtype": "float32", "activation": "relu"}}, {"class_name": "Conv2D", "name": "conv2d_19", "inbound_nodes": [[["activation_16", 0, 0, {}]]], "config": {"dilation_rate": [1, 1], "trainable": true, "strides": [1, 1], "filters": 128, "bias_constraint": null, "bias_initializer": {"class_name": "Zeros", "config": {"dtype": "float32"}}, "bias_regularizer": null, "kernel_constraint": null, "padding": "same", "data_format": "channels_last", "activation": "linear", "name": "conv2d_19", "kernel_initializer": {"class_name": "VarianceScaling", "config": {"seed": null, "scale": 2.0, "dtype": "float32", "distribution": "normal", "mode": "fan_in"}}, "kernel_size": [3, 3], "kernel_regularizer": {"class_name": "L1L2", "config": {"l2": 9.999999747378752e-05, "l1": 0.0}}, "use_bias": true, "activity_regularizer": null, "dtype": "float32"}}, {"class_name": "BatchNormalization", "name": "batch_normalization_17", "inbound_nodes": [[["conv2d_19", 0, 0, {}]]], "config": {"momentum": 0.99, "trainable": true, "epsilon": 0.001, "dtype": "float32", "moving_variance_initializer": {"class_name": "Ones", "config": {"dtype": "float32"}}, "moving_mean_initializer": {"class_name": "Zeros", "config": {"dtype": "float32"}}, "scale": true, "axis": [3], "gamma_constraint": null, "beta_initializer": {"class_name": "Zeros", "config": {"dtype": "float32"}}, "name": "batch_normalization_17", "beta_regularizer": null, "center": true, "beta_constraint": null, "gamma_initializer": {"class_name": "Ones", "config": {"dtype": "float32"}}, "gamma_regularizer": null}}, {"class_name": "Activation", "name": "activation_17", "inbound_nodes": [[["batch_normalization_17", 0, 0, {}]]], "config": {"trainable": true, "name": "activation_17", "dtype": "float32", "activation": "relu"}}, {"class_name": "Conv2D", "name": "conv2d_20", "inbound_nodes": [[["activation_17", 0, 0, {}]]], "config": {"dilation_rate": [1, 1], "trainable": true, "strides": [1, 1], "filters": 512, "bias_constraint": null, "bias_initializer": {"class_name": "Zeros", "config": {"dtype": "float32"}}, "bias_regularizer": null, "kernel_constraint": null, "padding": "same", "data_format": "channels_last", "activation": "linear", "name": "conv2d_20", "kernel_initializer": {"class_name": "VarianceScaling", "config": {"seed": null, "scale": 2.0, "dtype": "float32", "distribution": "normal", "mode": "fan_in"}}, "kernel_size": [1, 1], "kernel_regularizer": {"class_name": "L1L2", "config": {"l2": 9.999999747378752e-05, "l1": 0.0}}, "use_bias": true, "activity_regularizer": null, "dtype": "float32"}}, {"class_name": "Add", "name": "add_5", "inbound_nodes": [[["add_4", 0, 0, {}], ["conv2d_20", 0, 0, {}]]], "config": {"trainable": true, "name": "add_5", "dtype": "float32"}}, {"class_name": "BatchNormalization", "name": "batch_normalization_18", "inbound_nodes": [[["add_5", 0, 0, {}]]], "config": {"momentum": 0.99, "trainable": true, "epsilon": 0.001, "dtype": "float32", "moving_variance_initializer": {"class_name": "Ones", "config": {"dtype": "float32"}}, "moving_mean_initializer": {"class_name": "Zeros", "config": {"dtype": "float32"}}, "scale": true, "axis": [3], "gamma_constraint": null, "beta_initializer": {"class_name": "Zeros", "config": {"dtype": "float32"}}, "name": "batch_normalization_18", "beta_regularizer": null, "center": true, "beta_constraint": null, "gamma_initializer": {"class_name": "Ones", "config": {"dtype": "float32"}}, "gamma_regularizer": null}}, {"class_name": "Activation", "name": "activation_18", "inbound_nodes": [[["batch_normalization_18", 0, 0, {}]]], "config": {"trainable": true, "name": "activation_18", "dtype": "float32", "activation": "relu"}}, {"class_name": "Conv2D", "name": "conv2d_21", "inbound_nodes": [[["activation_18", 0, 0, {}]]], "config": {"dilation_rate": [1, 1], "trainable": true, "strides": [1, 1], "filters": 128, "bias_constraint": null, "bias_initializer": {"class_name": "Zeros", "config": {"dtype": "float32"}}, "bias_regularizer": null, "kernel_constraint": null, "padding": "same", "data_format": "channels_last", "activation": "linear", "name": "conv2d_21", "kernel_initializer": {"class_name": "VarianceScaling", "config": {"seed": null, "scale": 2.0, "dtype": "float32", "distribution": "normal", "mode": "fan_in"}}, "kernel_size": [1, 1], "kernel_regularizer": {"class_name": "L1L2", "config": {"l2": 9.999999747378752e-05, "l1": 0.0}}, "use_bias": true, "activity_regularizer": null, "dtype": "float32"}}, {"class_name": "BatchNormalization", "name": "batch_normalization_19", "inbound_nodes": [[["conv2d_21", 0, 0, {}]]], "config": {"momentum": 0.99, "trainable": true, "epsilon": 0.001, "dtype": "float32", "moving_variance_initializer": {"class_name": "Ones", "config": {"dtype": "float32"}}, "moving_mean_initializer": {"class_name": "Zeros", "config": {"dtype": "float32"}}, "scale": true, "axis": [3], "gamma_constraint": null, "beta_initializer": {"class_name": "Zeros", "config": {"dtype": "float32"}}, "name": "batch_normalization_19", "beta_regularizer": null, "center": true, "beta_constraint": null, "gamma_initializer": {"class_name": "Ones", "config": {"dtype": "float32"}}, "gamma_regularizer": null}}, {"class_name": "Activation", "name": "activation_19", "inbound_nodes": [[["batch_normalization_19", 0, 0, {}]]], "config": {"trainable": true, "name": "activation_19", "dtype": "float32", "activation": "relu"}}, {"class_name": "Conv2D", "name": "conv2d_22", "inbound_nodes": [[["activation_19", 0, 0, {}]]], "config": {"dilation_rate": [1, 1], "trainable": true, "strides": [1, 1], "filters": 128, "bias_constraint": null, "bias_initializer": {"class_name": "Zeros", "config": {"dtype": "float32"}}, "bias_regularizer": null, "kernel_constraint": null, "padding": "same", "data_format": "channels_last", "activation": "linear", "name": "conv2d_22", "kernel_initializer": {"class_name": "VarianceScaling", "config": {"seed": null, "scale": 2.0, "dtype": "float32", "distribution": "normal", "mode": "fan_in"}}, "kernel_size": [3, 3], "kernel_regularizer": {"class_name": "L1L2", "config": {"l2": 9.999999747378752e-05, "l1": 0.0}}, "use_bias": true, "activity_regularizer": null, "dtype": "float32"}}, {"class_name": "BatchNormalization", "name": "batch_normalization_20", "inbound_nodes": [[["conv2d_22", 0, 0, {}]]], "config": {"momentum": 0.99, "trainable": true, "epsilon": 0.001, "dtype": "float32", "moving_variance_initializer": {"class_name": "Ones", "config": {"dtype": "float32"}}, "moving_mean_initializer": {"class_name": "Zeros", "config": {"dtype": "float32"}}, "scale": true, "axis": [3], "gamma_constraint": null, "beta_initializer": {"class_name": "Zeros", "config": {"dtype": "float32"}}, "name": "batch_normalization_20", "beta_regularizer": null, "center": true, "beta_constraint": null, "gamma_initializer": {"class_name": "Ones", "config": {"dtype": "float32"}}, "gamma_regularizer": null}}, {"class_name": "Activation", "name": "activation_20", "inbound_nodes": [[["batch_normalization_20", 0, 0, {}]]], "config": {"trainable": true, "name": "activation_20", "dtype": "float32", "activation": "relu"}}, {"class_name": "Conv2D", "name": "conv2d_23", "inbound_nodes": [[["activation_20", 0, 0, {}]]], "config": {"dilation_rate": [1, 1], "trainable": true, "strides": [1, 1], "filters": 512, "bias_constraint": null, "bias_initializer": {"class_name": "Zeros", "config": {"dtype": "float32"}}, "bias_regularizer": null, "kernel_constraint": null, "padding": "same", "data_format": "channels_last", "activation": "linear", "name": "conv2d_23", "kernel_initializer": {"class_name": "VarianceScaling", "config": {"seed": null, "scale": 2.0, "dtype": "float32", "distribution": "normal", "mode": "fan_in"}}, "kernel_size": [1, 1], "kernel_regularizer": {"class_name": "L1L2", "config": {"l2": 9.999999747378752e-05, "l1": 0.0}}, "use_bias": true, "activity_regularizer": null, "dtype": "float32"}}, {"class_name": "Add", "name": "add_6", "inbound_nodes": [[["add_5", 0, 0, {}], ["conv2d_23", 0, 0, {}]]], "config": {"trainable": true, "name": "add_6", "dtype": "float32"}}, {"class_name": "BatchNormalization", "name": "batch_normalization_21", "inbound_nodes": [[["add_6", 0, 0, {}]]], "config": {"momentum": 0.99, "trainable": true, "epsilon": 0.001, "dtype": "float32", "moving_variance_initializer": {"class_name": "Ones", "config": {"dtype": "float32"}}, "moving_mean_initializer": {"class_name": "Zeros", "config": {"dtype": "float32"}}, "scale": true, "axis": [3], "gamma_constraint": null, "beta_initializer": {"class_name": "Zeros", "config": {"dtype": "float32"}}, "name": "batch_normalization_21", "beta_regularizer": null, "center": true, "beta_constraint": null, "gamma_initializer": {"class_name": "Ones", "config": {"dtype": "float32"}}, "gamma_regularizer": null}}, {"class_name": "Activation", "name": "activation_21", "inbound_nodes": [[["batch_normalization_21", 0, 0, {}]]], "config": {"trainable": true, "name": "activation_21", "dtype": "float32", "activation": "relu"}}, {"class_name": "Conv2D", "name": "conv2d_24", "inbound_nodes": [[["activation_21", 0, 0, {}]]], "config": {"dilation_rate": [1, 1], "trainable": true, "strides": [2, 2], "filters": 256, "bias_constraint": null, "bias_initializer": {"class_name": "Zeros", "config": {"dtype": "float32"}}, "bias_regularizer": null, "kernel_constraint": null, "padding": "same", "data_format": "channels_last", "activation": "linear", "name": "conv2d_24", "kernel_initializer": {"class_name": "VarianceScaling", "config": {"seed": null, "scale": 2.0, "dtype": "float32", "distribution": "normal", "mode": "fan_in"}}, "kernel_size": [1, 1], "kernel_regularizer": {"class_name": "L1L2", "config": {"l2": 9.999999747378752e-05, "l1": 0.0}}, "use_bias": true, "activity_regularizer": null, "dtype": "float32"}}, {"class_name": "BatchNormalization", "name": "batch_normalization_22", "inbound_nodes": [[["conv2d_24", 0, 0, {}]]], "config": {"momentum": 0.99, "trainable": true, "epsilon": 0.001, "dtype": "float32", "moving_variance_initializer": {"class_name": "Ones", "config": {"dtype": "float32"}}, "moving_mean_initializer": {"class_name": "Zeros", "config": {"dtype": "float32"}}, "scale": true, "axis": [3], "gamma_constraint": null, "beta_initializer": {"class_name": "Zeros", "config": {"dtype": "float32"}}, "name": "batch_normalization_22", "beta_regularizer": null, "center": true, "beta_constraint": null, "gamma_initializer": {"class_name": "Ones", "config": {"dtype": "float32"}}, "gamma_regularizer": null}}, {"class_name": "Activation", "name": "activation_22", "inbound_nodes": [[["batch_normalization_22", 0, 0, {}]]], "config": {"trainable": true, "name": "activation_22", "dtype": "float32", "activation": "relu"}}, {"class_name": "Conv2D", "name": "conv2d_25", "inbound_nodes": [[["activation_22", 0, 0, {}]]], "config": {"dilation_rate": [1, 1], "trainable": true, "strides": [1, 1], "filters": 256, "bias_constraint": null, "bias_initializer": {"class_name": "Zeros", "config": {"dtype": "float32"}}, "bias_regularizer": null, "kernel_constraint": null, "padding": "same", "data_format": "channels_last", "activation": "linear", "name": "conv2d_25", "kernel_initializer": {"class_name": "VarianceScaling", "config": {"seed": null, "scale": 2.0, "dtype": "float32", "distribution": "normal", "mode": "fan_in"}}, "kernel_size": [3, 3], "kernel_regularizer": {"class_name": "L1L2", "config": {"l2": 9.999999747378752e-05, "l1": 0.0}}, "use_bias": true, "activity_regularizer": null, "dtype": "float32"}}, {"class_name": "BatchNormalization", "name": "batch_normalization_23", "inbound_nodes": [[["conv2d_25", 0, 0, {}]]], "config": {"momentum": 0.99, "trainable": true, "epsilon": 0.001, "dtype": "float32", "moving_variance_initializer": {"class_name": "Ones", "config": {"dtype": "float32"}}, "moving_mean_initializer": {"class_name": "Zeros", "config": {"dtype": "float32"}}, "scale": true, "axis": [3], "gamma_constraint": null, "beta_initializer": {"class_name": "Zeros", "config": {"dtype": "float32"}}, "name": "batch_normalization_23", "beta_regularizer": null, "center": true, "beta_constraint": null, "gamma_initializer": {"class_name": "Ones", "config": {"dtype": "float32"}}, "gamma_regularizer": null}}, {"class_name": "Activation", "name": "activation_23", "inbound_nodes": [[["batch_normalization_23", 0, 0, {}]]], "config": {"trainable": true, "name": "activation_23", "dtype": "float32", "activation": "relu"}}, {"class_name": "Conv2D", "name": "conv2d_27", "inbound_nodes": [[["add_6", 0, 0, {}]]], "config": {"dilation_rate": [1, 1], "trainable": true, "strides": [2, 2], "filters": 1024, "bias_constraint": null, "bias_initializer": {"class_name": "Zeros", "config": {"dtype": "float32"}}, "bias_regularizer": null, "kernel_constraint": null, "padding": "valid", "data_format": "channels_last", "activation": "linear", "name": "conv2d_27", "kernel_initializer": {"class_name": "VarianceScaling", "config": {"seed": null, "scale": 2.0, "dtype": "float32", "distribution": "normal", "mode": "fan_in"}}, "kernel_size": [1, 1], "kernel_regularizer": {"class_name": "L1L2", "config": {"l2": 9.999999747378752e-05, "l1": 0.0}}, "use_bias": true, "activity_regularizer": null, "dtype": "float32"}}, {"class_name": "Conv2D", "name": "conv2d_26", "inbound_nodes": [[["activation_23", 0, 0, {}]]], "config": {"dilation_rate": [1, 1], "trainable": true, "strides": [1, 1], "filters": 1024, "bias_constraint": null, "bias_initializer": {"class_name": "Zeros", "config": {"dtype": "float32"}}, "bias_regularizer": null, "kernel_constraint": null, "padding": "same", "data_format": "channels_last", "activation": "linear", "name": "conv2d_26", "kernel_initializer": {"class_name": "VarianceScaling", "config": {"seed": null, "scale": 2.0, "dtype": "float32", "distribution": "normal", "mode": "fan_in"}}, "kernel_size": [1, 1], "kernel_regularizer": {"class_name": "L1L2", "config": {"l2": 9.999999747378752e-05, "l1": 0.0}}, "use_bias": true, "activity_regularizer": null, "dtype": "float32"}}, {"class_name": "Add", "name": "add_7", "inbound_nodes": [[["conv2d_27", 0, 0, {}], ["conv2d_26", 0, 0, {}]]], "config": {"trainable": true, "name": "add_7", "dtype": "float32"}}, {"class_name": "BatchNormalization", "name": "batch_normalization_24", "inbound_nodes": [[["add_7", 0, 0, {}]]], "config": {"momentum": 0.99, "trainable": true, "epsilon": 0.001, "dtype": "float32", "moving_variance_initializer": {"class_name": "Ones", "config": {"dtype": "float32"}}, "moving_mean_initializer": {"class_name": "Zeros", "config": {"dtype": "float32"}}, "scale": true, "axis": [3], "gamma_constraint": null, "beta_initializer": {"class_name": "Zeros", "config": {"dtype": "float32"}}, "name": "batch_normalization_24", "beta_regularizer": null, "center": true, "beta_constraint": null, "gamma_initializer": {"class_name": "Ones", "config": {"dtype": "float32"}}, "gamma_regularizer": null}}, {"class_name": "Activation", "name": "activation_24", "inbound_nodes": [[["batch_normalization_24", 0, 0, {}]]], "config": {"trainable": true, "name": "activation_24", "dtype": "float32", "activation": "relu"}}, {"class_name": "Conv2D", "name": "conv2d_28", "inbound_nodes": [[["activation_24", 0, 0, {}]]], "config": {"dilation_rate": [1, 1], "trainable": true, "strides": [1, 1], "filters": 256, "bias_constraint": null, "bias_initializer": {"class_name": "Zeros", "config": {"dtype": "float32"}}, "bias_regularizer": null, "kernel_constraint": null, "padding": "same", "data_format": "channels_last", "activation": "linear", "name": "conv2d_28", "kernel_initializer": {"class_name": "VarianceScaling", "config": {"seed": null, "scale": 2.0, "dtype": "float32", "distribution": "normal", "mode": "fan_in"}}, "kernel_size": [1, 1], "kernel_regularizer": {"class_name": "L1L2", "config": {"l2": 9.999999747378752e-05, "l1": 0.0}}, "use_bias": true, "activity_regularizer": null, "dtype": "float32"}}, {"class_name": "BatchNormalization", "name": "batch_normalization_25", "inbound_nodes": [[["conv2d_28", 0, 0, {}]]], "config": {"momentum": 0.99, "trainable": true, "epsilon": 0.001, "dtype": "float32", "moving_variance_initializer": {"class_name": "Ones", "config": {"dtype": "float32"}}, "moving_mean_initializer": {"class_name": "Zeros", "config": {"dtype": "float32"}}, "scale": true, "axis": [3], "gamma_constraint": null, "beta_initializer": {"class_name": "Zeros", "config": {"dtype": "float32"}}, "name": "batch_normalization_25", "beta_regularizer": null, "center": true, "beta_constraint": null, "gamma_initializer": {"class_name": "Ones", "config": {"dtype": "float32"}}, "gamma_regularizer": null}}, {"class_name": "Activation", "name": "activation_25", "inbound_nodes": [[["batch_normalization_25", 0, 0, {}]]], "config": {"trainable": true, "name": "activation_25", "dtype": "float32", "activation": "relu"}}, {"class_name": "Conv2D", "name": "conv2d_29", "inbound_nodes": [[["activation_25", 0, 0, {}]]], "config": {"dilation_rate": [1, 1], "trainable": true, "strides": [1, 1], "filters": 256, "bias_constraint": null, "bias_initializer": {"class_name": "Zeros", "config": {"dtype": "float32"}}, "bias_regularizer": null, "kernel_constraint": null, "padding": "same", "data_format": "channels_last", "activation": "linear", "name": "conv2d_29", "kernel_initializer": {"class_name": "VarianceScaling", "config": {"seed": null, "scale": 2.0, "dtype": "float32", "distribution": "normal", "mode": "fan_in"}}, "kernel_size": [3, 3], "kernel_regularizer": {"class_name": "L1L2", "config": {"l2": 9.999999747378752e-05, "l1": 0.0}}, "use_bias": true, "activity_regularizer": null, "dtype": "float32"}}, {"class_name": "BatchNormalization", "name": "batch_normalization_26", "inbound_nodes": [[["conv2d_29", 0, 0, {}]]], "config": {"momentum": 0.99, "trainable": true, "epsilon": 0.001, "dtype": "float32", "moving_variance_initializer": {"class_name": "Ones", "config": {"dtype": "float32"}}, "moving_mean_initializer": {"class_name": "Zeros", "config": {"dtype": "float32"}}, "scale": true, "axis": [3], "gamma_constraint": null, "beta_initializer": {"class_name": "Zeros", "config": {"dtype": "float32"}}, "name": "batch_normalization_26", "beta_regularizer": null, "center": true, "beta_constraint": null, "gamma_initializer": {"class_name": "Ones", "config": {"dtype": "float32"}}, "gamma_regularizer": null}}, {"class_name": "Activation", "name": "activation_26", "inbound_nodes": [[["batch_normalization_26", 0, 0, {}]]], "config": {"trainable": true, "name": "activation_26", "dtype": "float32", "activation": "relu"}}, {"class_name": "Conv2D", "name": "conv2d_30", "inbound_nodes": [[["activation_26", 0, 0, {}]]], "config": {"dilation_rate": [1, 1], "trainable": true, "strides": [1, 1], "filters": 1024, "bias_constraint": null, "bias_initializer": {"class_name": "Zeros", "config": {"dtype": "float32"}}, "bias_regularizer": null, "kernel_constraint": null, "padding": "same", "data_format": "channels_last", "activation": "linear", "name": "conv2d_30", "kernel_initializer": {"class_name": "VarianceScaling", "config": {"seed": null, "scale": 2.0, "dtype": "float32", "distribution": "normal", "mode": "fan_in"}}, "kernel_size": [1, 1], "kernel_regularizer": {"class_name": "L1L2", "config": {"l2": 9.999999747378752e-05, "l1": 0.0}}, "use_bias": true, "activity_regularizer": null, "dtype": "float32"}}, {"class_name": "Add", "name": "add_8", "inbound_nodes": [[["add_7", 0, 0, {}], ["conv2d_30", 0, 0, {}]]], "config": {"trainable": true, "name": "add_8", "dtype": "float32"}}, {"class_name": "BatchNormalization", "name": "batch_normalization_27", "inbound_nodes": [[["add_8", 0, 0, {}]]], "config": {"momentum": 0.99, "trainable": true, "epsilon": 0.001, "dtype": "float32", "moving_variance_initializer": {"class_name": "Ones", "config": {"dtype": "float32"}}, "moving_mean_initializer": {"class_name": "Zeros", "config": {"dtype": "float32"}}, "scale": true, "axis": [3], "gamma_constraint": null, "beta_initializer": {"class_name": "Zeros", "config": {"dtype": "float32"}}, "name": "batch_normalization_27", "beta_regularizer": null, "center": true, "beta_constraint": null, "gamma_initializer": {"class_name": "Ones", "config": {"dtype": "float32"}}, "gamma_regularizer": null}}, {"class_name": "Activation", "name": "activation_27", "inbound_nodes": [[["batch_normalization_27", 0, 0, {}]]], "config": {"trainable": true, "name": "activation_27", "dtype": "float32", "activation": "relu"}}, {"class_name": "Conv2D", "name": "conv2d_31", "inbound_nodes": [[["activation_27", 0, 0, {}]]], "config": {"dilation_rate": [1, 1], "trainable": true, "strides": [1, 1], "filters": 256, "bias_constraint": null, "bias_initializer": {"class_name": "Zeros", "config": {"dtype": "float32"}}, "bias_regularizer": null, "kernel_constraint": null, "padding": "same", "data_format": "channels_last", "activation": "linear", "name": "conv2d_31", "kernel_initializer": {"class_name": "VarianceScaling", "config": {"seed": null, "scale": 2.0, "dtype": "float32", "distribution": "normal", "mode": "fan_in"}}, "kernel_size": [1, 1], "kernel_regularizer": {"class_name": "L1L2", "config": {"l2": 9.999999747378752e-05, "l1": 0.0}}, "use_bias": true, "activity_regularizer": null, "dtype": "float32"}}, {"class_name": "BatchNormalization", "name": "batch_normalization_28", "inbound_nodes": [[["conv2d_31", 0, 0, {}]]], "config": {"momentum": 0.99, "trainable": true, "epsilon": 0.001, "dtype": "float32", "moving_variance_initializer": {"class_name": "Ones", "config": {"dtype": "float32"}}, "moving_mean_initializer": {"class_name": "Zeros", "config": {"dtype": "float32"}}, "scale": true, "axis": [3], "gamma_constraint": null, "beta_initializer": {"class_name": "Zeros", "config": {"dtype": "float32"}}, "name": "batch_normalization_28", "beta_regularizer": null, "center": true, "beta_constraint": null, "gamma_initializer": {"class_name": "Ones", "config": {"dtype": "float32"}}, "gamma_regularizer": null}}, {"class_name": "Activation", "name": "activation_28", "inbound_nodes": [[["batch_normalization_28", 0, 0, {}]]], "config": {"trainable": true, "name": "activation_28", "dtype": "float32", "activation": "relu"}}, {"class_name": "Conv2D", "name": "conv2d_32", "inbound_nodes": [[["activation_28", 0, 0, {}]]], "config": {"dilation_rate": [1, 1], "trainable": true, "strides": [1, 1], "filters": 256, "bias_constraint": null, "bias_initializer": {"class_name": "Zeros", "config": {"dtype": "float32"}}, "bias_regularizer": null, "kernel_constraint": null, "padding": "same", "data_format": "channels_last", "activation": "linear", "name": "conv2d_32", "kernel_initializer": {"class_name": "VarianceScaling", "config": {"seed": null, "scale": 2.0, "dtype": "float32", "distribution": "normal", "mode": "fan_in"}}, "kernel_size": [3, 3], "kernel_regularizer": {"class_name": "L1L2", "config": {"l2": 9.999999747378752e-05, "l1": 0.0}}, "use_bias": true, "activity_regularizer": null, "dtype": "float32"}}, {"class_name": "BatchNormalization", "name": "batch_normalization_29", "inbound_nodes": [[["conv2d_32", 0, 0, {}]]], "config": {"momentum": 0.99, "trainable": true, "epsilon": 0.001, "dtype": "float32", "moving_variance_initializer": {"class_name": "Ones", "config": {"dtype": "float32"}}, "moving_mean_initializer": {"class_name": "Zeros", "config": {"dtype": "float32"}}, "scale": true, "axis": [3], "gamma_constraint": null, "beta_initializer": {"class_name": "Zeros", "config": {"dtype": "float32"}}, "name": "batch_normalization_29", "beta_regularizer": null, "center": true, "beta_constraint": null, "gamma_initializer": {"class_name": "Ones", "config": {"dtype": "float32"}}, "gamma_regularizer": null}}, {"class_name": "Activation", "name": "activation_29", "inbound_nodes": [[["batch_normalization_29", 0, 0, {}]]], "config": {"trainable": true, "name": "activation_29", "dtype": "float32", "activation": "relu"}}, {"class_name": "Conv2D", "name": "conv2d_33", "inbound_nodes": [[["activation_29", 0, 0, {}]]], "config": {"dilation_rate": [1, 1], "trainable": true, "strides": [1, 1], "filters": 1024, "bias_constraint": null, "bias_initializer": {"class_name": "Zeros", "config": {"dtype": "float32"}}, "bias_regularizer": null, "kernel_constraint": null, "padding": "same", "data_format": "channels_last", "activation": "linear", "name": "conv2d_33", "kernel_initializer": {"class_name": "VarianceScaling", "config": {"seed": null, "scale": 2.0, "dtype": "float32", "distribution": "normal", "mode": "fan_in"}}, "kernel_size": [1, 1], "kernel_regularizer": {"class_name": "L1L2", "config": {"l2": 9.999999747378752e-05, "l1": 0.0}}, "use_bias": true, "activity_regularizer": null, "dtype": "float32"}}, {"class_name": "Add", "name": "add_9", "inbound_nodes": [[["add_8", 0, 0, {}], ["conv2d_33", 0, 0, {}]]], "config": {"trainable": true, "name": "add_9", "dtype": "float32"}}, {"class_name": "BatchNormalization", "name": "batch_normalization_30", "inbound_nodes": [[["add_9", 0, 0, {}]]], "config": {"momentum": 0.99, "trainable": true, "epsilon": 0.001, "dtype": "float32", "moving_variance_initializer": {"class_name": "Ones", "config": {"dtype": "float32"}}, "moving_mean_initializer": {"class_name": "Zeros", "config": {"dtype": "float32"}}, "scale": true, "axis": [3], "gamma_constraint": null, "beta_initializer": {"class_name": "Zeros", "config": {"dtype": "float32"}}, "name": "batch_normalization_30", "beta_regularizer": null, "center": true, "beta_constraint": null, "gamma_initializer": {"class_name": "Ones", "config": {"dtype": "float32"}}, "gamma_regularizer": null}}, {"class_name": "Activation", "name": "activation_30", "inbound_nodes": [[["batch_normalization_30", 0, 0, {}]]], "config": {"trainable": true, "name": "activation_30", "dtype": "float32", "activation": "relu"}}, {"class_name": "Conv2D", "name": "conv2d_34", "inbound_nodes": [[["activation_30", 0, 0, {}]]], "config": {"dilation_rate": [1, 1], "trainable": true, "strides": [1, 1], "filters": 256, "bias_constraint": null, "bias_initializer": {"class_name": "Zeros", "config": {"dtype": "float32"}}, "bias_regularizer": null, "kernel_constraint": null, "padding": "same", "data_format": "channels_last", "activation": "linear", "name": "conv2d_34", "kernel_initializer": {"class_name": "VarianceScaling", "config": {"seed": null, "scale": 2.0, "dtype": "float32", "distribution": "normal", "mode": "fan_in"}}, "kernel_size": [1, 1], "kernel_regularizer": {"class_name": "L1L2", "config": {"l2": 9.999999747378752e-05, "l1": 0.0}}, "use_bias": true, "activity_regularizer": null, "dtype": "float32"}}, {"class_name": "BatchNormalization", "name": "batch_normalization_31", "inbound_nodes": [[["conv2d_34", 0, 0, {}]]], "config": {"momentum": 0.99, "trainable": true, "epsilon": 0.001, "dtype": "float32", "moving_variance_initializer": {"class_name": "Ones", "config": {"dtype": "float32"}}, "moving_mean_initializer": {"class_name": "Zeros", "config": {"dtype": "float32"}}, "scale": true, "axis": [3], "gamma_constraint": null, "beta_initializer": {"class_name": "Zeros", "config": {"dtype": "float32"}}, "name": "batch_normalization_31", "beta_regularizer": null, "center": true, "beta_constraint": null, "gamma_initializer": {"class_name": "Ones", "config": {"dtype": "float32"}}, "gamma_regularizer": null}}, {"class_name": "Activation", "name": "activation_31", "inbound_nodes": [[["batch_normalization_31", 0, 0, {}]]], "config": {"trainable": true, "name": "activation_31", "dtype": "float32", "activation": "relu"}}, {"class_name": "Conv2D", "name": "conv2d_35", "inbound_nodes": [[["activation_31", 0, 0, {}]]], "config": {"dilation_rate": [1, 1], "trainable": true, "strides": [1, 1], "filters": 256, "bias_constraint": null, "bias_initializer": {"class_name": "Zeros", "config": {"dtype": "float32"}}, "bias_regularizer": null, "kernel_constraint": null, "padding": "same", "data_format": "channels_last", "activation": "linear", "name": "conv2d_35", "kernel_initializer": {"class_name": "VarianceScaling", "config": {"seed": null, "scale": 2.0, "dtype": "float32", "distribution": "normal", "mode": "fan_in"}}, "kernel_size": [3, 3], "kernel_regularizer": {"class_name": "L1L2", "config": {"l2": 9.999999747378752e-05, "l1": 0.0}}, "use_bias": true, "activity_regularizer": null, "dtype": "float32"}}, {"class_name": "BatchNormalization", "name": "batch_normalization_32", "inbound_nodes": [[["conv2d_35", 0, 0, {}]]], "config": {"momentum": 0.99, "trainable": true, "epsilon": 0.001, "dtype": "float32", "moving_variance_initializer": {"class_name": "Ones", "config": {"dtype": "float32"}}, "moving_mean_initializer": {"class_name": "Zeros", "config": {"dtype": "float32"}}, "scale": true, "axis": [3], "gamma_constraint": null, "beta_initializer": {"class_name": "Zeros", "config": {"dtype": "float32"}}, "name": "batch_normalization_32", "beta_regularizer": null, "center": true, "beta_constraint": null, "gamma_initializer": {"class_name": "Ones", "config": {"dtype": "float32"}}, "gamma_regularizer": null}}, {"class_name": "Activation", "name": "activation_32", "inbound_nodes": [[["batch_normalization_32", 0, 0, {}]]], "config": {"trainable": true, "name": "activation_32", "dtype": "float32", "activation": "relu"}}, {"class_name": "Conv2D", "name": "conv2d_36", "inbound_nodes": [[["activation_32", 0, 0, {}]]], "config": {"dilation_rate": [1, 1], "trainable": true, "strides": [1, 1], "filters": 1024, "bias_constraint": null, "bias_initializer": {"class_name": "Zeros", "config": {"dtype": "float32"}}, "bias_regularizer": null, "kernel_constraint": null, "padding": "same", "data_format": "channels_last", "activation": "linear", "name": "conv2d_36", "kernel_initializer": {"class_name": "VarianceScaling", "config": {"seed": null, "scale": 2.0, "dtype": "float32", "distribution": "normal", "mode": "fan_in"}}, "kernel_size": [1, 1], "kernel_regularizer": {"class_name": "L1L2", "config": {"l2": 9.999999747378752e-05, "l1": 0.0}}, "use_bias": true, "activity_regularizer": null, "dtype": "float32"}}, {"class_name": "Add", "name": "add_10", "inbound_nodes": [[["add_9", 0, 0, {}], ["conv2d_36", 0, 0, {}]]], "config": {"trainable": true, "name": "add_10", "dtype": "float32"}}, {"class_name": "BatchNormalization", "name": "batch_normalization_33", "inbound_nodes": [[["add_10", 0, 0, {}]]], "config": {"momentum": 0.99, "trainable": true, "epsilon": 0.001, "dtype": "float32", "moving_variance_initializer": {"class_name": "Ones", "config": {"dtype": "float32"}}, "moving_mean_initializer": {"class_name": "Zeros", "config": {"dtype": "float32"}}, "scale": true, "axis": [3], "gamma_constraint": null, "beta_initializer": {"class_name": "Zeros", "config": {"dtype": "float32"}}, "name": "batch_normalization_33", "beta_regularizer": null, "center": true, "beta_constraint": null, "gamma_initializer": {"class_name": "Ones", "config": {"dtype": "float32"}}, "gamma_regularizer": null}}, {"class_name": "Activation", "name": "activation_33", "inbound_nodes": [[["batch_normalization_33", 0, 0, {}]]], "config": {"trainable": true, "name": "activation_33", "dtype": "float32", "activation": "relu"}}, {"class_name": "Conv2D", "name": "conv2d_37", "inbound_nodes": [[["activation_33", 0, 0, {}]]], "config": {"dilation_rate": [1, 1], "trainable": true, "strides": [1, 1], "filters": 256, "bias_constraint": null, "bias_initializer": {"class_name": "Zeros", "config": {"dtype": "float32"}}, "bias_regularizer": null, "kernel_constraint": null, "padding": "same", "data_format": "channels_last", "activation": "linear", "name": "conv2d_37", "kernel_initializer": {"class_name": "VarianceScaling", "config": {"seed": null, "scale": 2.0, "dtype": "float32", "distribution": "normal", "mode": "fan_in"}}, "kernel_size": [1, 1], "kernel_regularizer": {"class_name": "L1L2", "config": {"l2": 9.999999747378752e-05, "l1": 0.0}}, "use_bias": true, "activity_regularizer": null, "dtype": "float32"}}, {"class_name": "BatchNormalization", "name": "batch_normalization_34", "inbound_nodes": [[["conv2d_37", 0, 0, {}]]], "config": {"momentum": 0.99, "trainable": true, "epsilon": 0.001, "dtype": "float32", "moving_variance_initializer": {"class_name": "Ones", "config": {"dtype": "float32"}}, "moving_mean_initializer": {"class_name": "Zeros", "config": {"dtype": "float32"}}, "scale": true, "axis": [3], "gamma_constraint": null, "beta_initializer": {"class_name": "Zeros", "config": {"dtype": "float32"}}, "name": "batch_normalization_34", "beta_regularizer": null, "center": true, "beta_constraint": null, "gamma_initializer": {"class_name": "Ones", "config": {"dtype": "float32"}}, "gamma_regularizer": null}}, {"class_name": "Activation", "name": "activation_34", "inbound_nodes": [[["batch_normalization_34", 0, 0, {}]]], "config": {"trainable": true, "name": "activation_34", "dtype": "float32", "activation": "relu"}}, {"class_name": "Conv2D", "name": "conv2d_38", "inbound_nodes": [[["activation_34", 0, 0, {}]]], "config": {"dilation_rate": [1, 1], "trainable": true, "strides": [1, 1], "filters": 256, "bias_constraint": null, "bias_initializer": {"class_name": "Zeros", "config": {"dtype": "float32"}}, "bias_regularizer": null, "kernel_constraint": null, "padding": "same", "data_format": "channels_last", "activation": "linear", "name": "conv2d_38", "kernel_initializer": {"class_name": "VarianceScaling", "config": {"seed": null, "scale": 2.0, "dtype": "float32", "distribution": "normal", "mode": "fan_in"}}, "kernel_size": [3, 3], "kernel_regularizer": {"class_name": "L1L2", "config": {"l2": 9.999999747378752e-05, "l1": 0.0}}, "use_bias": true, "activity_regularizer": null, "dtype": "float32"}}, {"class_name": "BatchNormalization", "name": "batch_normalization_35", "inbound_nodes": [[["conv2d_38", 0, 0, {}]]], "config": {"momentum": 0.99, "trainable": true, "epsilon": 0.001, "dtype": "float32", "moving_variance_initializer": {"class_name": "Ones", "config": {"dtype": "float32"}}, "moving_mean_initializer": {"class_name": "Zeros", "config": {"dtype": "float32"}}, "scale": true, "axis": [3], "gamma_constraint": null, "beta_initializer": {"class_name": "Zeros", "config": {"dtype": "float32"}}, "name": "batch_normalization_35", "beta_regularizer": null, "center": true, "beta_constraint": null, "gamma_initializer": {"class_name": "Ones", "config": {"dtype": "float32"}}, "gamma_regularizer": null}}, {"class_name": "Activation", "name": "activation_35", "inbound_nodes": [[["batch_normalization_35", 0, 0, {}]]], "config": {"trainable": true, "name": "activation_35", "dtype": "float32", "activation": "relu"}}, {"class_name": "Conv2D", "name": "conv2d_39", "inbound_nodes": [[["activation_35", 0, 0, {}]]], "config": {"dilation_rate": [1, 1], "trainable": true, "strides": [1, 1], "filters": 1024, "bias_constraint": null, "bias_initializer": {"class_name": "Zeros", "config": {"dtype": "float32"}}, "bias_regularizer": null, "kernel_constraint": null, "padding": "same", "data_format": "channels_last", "activation": "linear", "name": "conv2d_39", "kernel_initializer": {"class_name": "VarianceScaling", "config": {"seed": null, "scale": 2.0, "dtype": "float32", "distribution": "normal", "mode": "fan_in"}}, "kernel_size": [1, 1], "kernel_regularizer": {"class_name": "L1L2", "config": {"l2": 9.999999747378752e-05, "l1": 0.0}}, "use_bias": true, "activity_regularizer": null, "dtype": "float32"}}, {"class_name": "Add", "name": "add_11", "inbound_nodes": [[["add_10", 0, 0, {}], ["conv2d_39", 0, 0, {}]]], "config": {"trainable": true, "name": "add_11", "dtype": "float32"}}, {"class_name": "BatchNormalization", "name": "batch_normalization_36", "inbound_nodes": [[["add_11", 0, 0, {}]]], "config": {"momentum": 0.99, "trainable": true, "epsilon": 0.001, "dtype": "float32", "moving_variance_initializer": {"class_name": "Ones", "config": {"dtype": "float32"}}, "moving_mean_initializer": {"class_name": "Zeros", "config": {"dtype": "float32"}}, "scale": true, "axis": [3], "gamma_constraint": null, "beta_initializer": {"class_name": "Zeros", "config": {"dtype": "float32"}}, "name": "batch_normalization_36", "beta_regularizer": null, "center": true, "beta_constraint": null, "gamma_initializer": {"class_name": "Ones", "config": {"dtype": "float32"}}, "gamma_regularizer": null}}, {"class_name": "Activation", "name": "activation_36", "inbound_nodes": [[["batch_normalization_36", 0, 0, {}]]], "config": {"trainable": true, "name": "activation_36", "dtype": "float32", "activation": "relu"}}, {"class_name": "Conv2D", "name": "conv2d_40", "inbound_nodes": [[["activation_36", 0, 0, {}]]], "config": {"dilation_rate": [1, 1], "trainable": true, "strides": [1, 1], "filters": 256, "bias_constraint": null, "bias_initializer": {"class_name": "Zeros", "config": {"dtype": "float32"}}, "bias_regularizer": null, "kernel_constraint": null, "padding": "same", "data_format": "channels_last", "activation": "linear", "name": "conv2d_40", "kernel_initializer": {"class_name": "VarianceScaling", "config": {"seed": null, "scale": 2.0, "dtype": "float32", "distribution": "normal", "mode": "fan_in"}}, "kernel_size": [1, 1], "kernel_regularizer": {"class_name": "L1L2", "config": {"l2": 9.999999747378752e-05, "l1": 0.0}}, "use_bias": true, "activity_regularizer": null, "dtype": "float32"}}, {"class_name": "BatchNormalization", "name": "batch_normalization_37", "inbound_nodes": [[["conv2d_40", 0, 0, {}]]], "config": {"momentum": 0.99, "trainable": true, "epsilon": 0.001, "dtype": "float32", "moving_variance_initializer": {"class_name": "Ones", "config": {"dtype": "float32"}}, "moving_mean_initializer": {"class_name": "Zeros", "config": {"dtype": "float32"}}, "scale": true, "axis": [3], "gamma_constraint": null, "beta_initializer": {"class_name": "Zeros", "config": {"dtype": "float32"}}, "name": "batch_normalization_37", "beta_regularizer": null, "center": true, "beta_constraint": null, "gamma_initializer": {"class_name": "Ones", "config": {"dtype": "float32"}}, "gamma_regularizer": null}}, {"class_name": "Activation", "name": "activation_37", "inbound_nodes": [[["batch_normalization_37", 0, 0, {}]]], "config": {"trainable": true, "name": "activation_37", "dtype": "float32", "activation": "relu"}}, {"class_name": "Conv2D", "name": "conv2d_41", "inbound_nodes": [[["activation_37", 0, 0, {}]]], "config": {"dilation_rate": [1, 1], "trainable": true, "strides": [1, 1], "filters": 256, "bias_constraint": null, "bias_initializer": {"class_name": "Zeros", "config": {"dtype": "float32"}}, "bias_regularizer": null, "kernel_constraint": null, "padding": "same", "data_format": "channels_last", "activation": "linear", "name": "conv2d_41", "kernel_initializer": {"class_name": "VarianceScaling", "config": {"seed": null, "scale": 2.0, "dtype": "float32", "distribution": "normal", "mode": "fan_in"}}, "kernel_size": [3, 3], "kernel_regularizer": {"class_name": "L1L2", "config": {"l2": 9.999999747378752e-05, "l1": 0.0}}, "use_bias": true, "activity_regularizer": null, "dtype": "float32"}}, {"class_name": "BatchNormalization", "name": "batch_normalization_38", "inbound_nodes": [[["conv2d_41", 0, 0, {}]]], "config": {"momentum": 0.99, "trainable": true, "epsilon": 0.001, "dtype": "float32", "moving_variance_initializer": {"class_name": "Ones", "config": {"dtype": "float32"}}, "moving_mean_initializer": {"class_name": "Zeros", "config": {"dtype": "float32"}}, "scale": true, "axis": [3], "gamma_constraint": null, "beta_initializer": {"class_name": "Zeros", "config": {"dtype": "float32"}}, "name": "batch_normalization_38", "beta_regularizer": null, "center": true, "beta_constraint": null, "gamma_initializer": {"class_name": "Ones", "config": {"dtype": "float32"}}, "gamma_regularizer": null}}, {"class_name": "Activation", "name": "activation_38", "inbound_nodes": [[["batch_normalization_38", 0, 0, {}]]], "config": {"trainable": true, "name": "activation_38", "dtype": "float32", "activation": "relu"}}, {"class_name": "Conv2D", "name": "conv2d_42", "inbound_nodes": [[["activation_38", 0, 0, {}]]], "config": {"dilation_rate": [1, 1], "trainable": true, "strides": [1, 1], "filters": 1024, "bias_constraint": null, "bias_initializer": {"class_name": "Zeros", "config": {"dtype": "float32"}}, "bias_regularizer": null, "kernel_constraint": null, "padding": "same", "data_format": "channels_last", "activation": "linear", "name": "conv2d_42", "kernel_initializer": {"class_name": "VarianceScaling", "config": {"seed": null, "scale": 2.0, "dtype": "float32", "distribution": "normal", "mode": "fan_in"}}, "kernel_size": [1, 1], "kernel_regularizer": {"class_name": "L1L2", "config": {"l2": 9.999999747378752e-05, "l1": 0.0}}, "use_bias": true, "activity_regularizer": null, "dtype": "float32"}}, {"class_name": "Add", "name": "add_12", "inbound_nodes": [[["add_11", 0, 0, {}], ["conv2d_42", 0, 0, {}]]], "config": {"trainable": true, "name": "add_12", "dtype": "float32"}}, {"class_name": "BatchNormalization", "name": "batch_normalization_39", "inbound_nodes": [[["add_12", 0, 0, {}]]], "config": {"momentum": 0.99, "trainable": true, "epsilon": 0.001, "dtype": "float32", "moving_variance_initializer": {"class_name": "Ones", "config": {"dtype": "float32"}}, "moving_mean_initializer": {"class_name": "Zeros", "config": {"dtype": "float32"}}, "scale": true, "axis": [3], "gamma_constraint": null, "beta_initializer": {"class_name": "Zeros", "config": {"dtype": "float32"}}, "name": "batch_normalization_39", "beta_regularizer": null, "center": true, "beta_constraint": null, "gamma_initializer": {"class_name": "Ones", "config": {"dtype": "float32"}}, "gamma_regularizer": null}}, {"class_name": "Activation", "name": "activation_39", "inbound_nodes": [[["batch_normalization_39", 0, 0, {}]]], "config": {"trainable": true, "name": "activation_39", "dtype": "float32", "activation": "relu"}}, {"class_name": "Conv2D", "name": "conv2d_43", "inbound_nodes": [[["activation_39", 0, 0, {}]]], "config": {"dilation_rate": [1, 1], "trainable": true, "strides": [2, 2], "filters": 512, "bias_constraint": null, "bias_initializer": {"class_name": "Zeros", "config": {"dtype": "float32"}}, "bias_regularizer": null, "kernel_constraint": null, "padding": "same", "data_format": "channels_last", "activation": "linear", "name": "conv2d_43", "kernel_initializer": {"class_name": "VarianceScaling", "config": {"seed": null, "scale": 2.0, "dtype": "float32", "distribution": "normal", "mode": "fan_in"}}, "kernel_size": [1, 1], "kernel_regularizer": {"class_name": "L1L2", "config": {"l2": 9.999999747378752e-05, "l1": 0.0}}, "use_bias": true, "activity_regularizer": null, "dtype": "float32"}}, {"class_name": "BatchNormalization", "name": "batch_normalization_40", "inbound_nodes": [[["conv2d_43", 0, 0, {}]]], "config": {"momentum": 0.99, "trainable": true, "epsilon": 0.001, "dtype": "float32", "moving_variance_initializer": {"class_name": "Ones", "config": {"dtype": "float32"}}, "moving_mean_initializer": {"class_name": "Zeros", "config": {"dtype": "float32"}}, "scale": true, "axis": [3], "gamma_constraint": null, "beta_initializer": {"class_name": "Zeros", "config": {"dtype": "float32"}}, "name": "batch_normalization_40", "beta_regularizer": null, "center": true, "beta_constraint": null, "gamma_initializer": {"class_name": "Ones", "config": {"dtype": "float32"}}, "gamma_regularizer": null}}, {"class_name": "Activation", "name": "activation_40", "inbound_nodes": [[["batch_normalization_40", 0, 0, {}]]], "config": {"trainable": true, "name": "activation_40", "dtype": "float32", "activation": "relu"}}, {"class_name": "Conv2D", "name": "conv2d_44", "inbound_nodes": [[["activation_40", 0, 0, {}]]], "config": {"dilation_rate": [1, 1], "trainable": true, "strides": [1, 1], "filters": 512, "bias_constraint": null, "bias_initializer": {"class_name": "Zeros", "config": {"dtype": "float32"}}, "bias_regularizer": null, "kernel_constraint": null, "padding": "same", "data_format": "channels_last", "activation": "linear", "name": "conv2d_44", "kernel_initializer": {"class_name": "VarianceScaling", "config": {"seed": null, "scale": 2.0, "dtype": "float32", "distribution": "normal", "mode": "fan_in"}}, "kernel_size": [3, 3], "kernel_regularizer": {"class_name": "L1L2", "config": {"l2": 9.999999747378752e-05, "l1": 0.0}}, "use_bias": true, "activity_regularizer": null, "dtype": "float32"}}, {"class_name": "BatchNormalization", "name": "batch_normalization_41", "inbound_nodes": [[["conv2d_44", 0, 0, {}]]], "config": {"momentum": 0.99, "trainable": true, "epsilon": 0.001, "dtype": "float32", "moving_variance_initializer": {"class_name": "Ones", "config": {"dtype": "float32"}}, "moving_mean_initializer": {"class_name": "Zeros", "config": {"dtype": "float32"}}, "scale": true, "axis": [3], "gamma_constraint": null, "beta_initializer": {"class_name": "Zeros", "config": {"dtype": "float32"}}, "name": "batch_normalization_41", "beta_regularizer": null, "center": true, "beta_constraint": null, "gamma_initializer": {"class_name": "Ones", "config": {"dtype": "float32"}}, "gamma_regularizer": null}}, {"class_name": "Activation", "name": "activation_41", "inbound_nodes": [[["batch_normalization_41", 0, 0, {}]]], "config": {"trainable": true, "name": "activation_41", "dtype": "float32", "activation": "relu"}}, {"class_name": "Conv2D", "name": "conv2d_46", "inbound_nodes": [[["add_12", 0, 0, {}]]], "config": {"dilation_rate": [1, 1], "trainable": true, "strides": [2, 2], "filters": 2048, "bias_constraint": null, "bias_initializer": {"class_name": "Zeros", "config": {"dtype": "float32"}}, "bias_regularizer": null, "kernel_constraint": null, "padding": "valid", "data_format": "channels_last", "activation": "linear", "name": "conv2d_46", "kernel_initializer": {"class_name": "VarianceScaling", "config": {"seed": null, "scale": 2.0, "dtype": "float32", "distribution": "normal", "mode": "fan_in"}}, "kernel_size": [1, 1], "kernel_regularizer": {"class_name": "L1L2", "config": {"l2": 9.999999747378752e-05, "l1": 0.0}}, "use_bias": true, "activity_regularizer": null, "dtype": "float32"}}, {"class_name": "Conv2D", "name": "conv2d_45", "inbound_nodes": [[["activation_41", 0, 0, {}]]], "config": {"dilation_rate": [1, 1], "trainable": true, "strides": [1, 1], "filters": 2048, "bias_constraint": null, "bias_initializer": {"class_name": "Zeros", "config": {"dtype": "float32"}}, "bias_regularizer": null, "kernel_constraint": null, "padding": "same", "data_format": "channels_last", "activation": "linear", "name": "conv2d_45", "kernel_initializer": {"class_name": "VarianceScaling", "config": {"seed": null, "scale": 2.0, "dtype": "float32", "distribution": "normal", "mode": "fan_in"}}, "kernel_size": [1, 1], "kernel_regularizer": {"class_name": "L1L2", "config": {"l2": 9.999999747378752e-05, "l1": 0.0}}, "use_bias": true, "activity_regularizer": null, "dtype": "float32"}}, {"class_name": "Add", "name": "add_13", "inbound_nodes": [[["conv2d_46", 0, 0, {}], ["conv2d_45", 0, 0, {}]]], "config": {"trainable": true, "name": "add_13", "dtype": "float32"}}, {"class_name": "BatchNormalization", "name": "batch_normalization_42", "inbound_nodes": [[["add_13", 0, 0, {}]]], "config": {"momentum": 0.99, "trainable": true, "epsilon": 0.001, "dtype": "float32", "moving_variance_initializer": {"class_name": "Ones", "config": {"dtype": "float32"}}, "moving_mean_initializer": {"class_name": "Zeros", "config": {"dtype": "float32"}}, "scale": true, "axis": [3], "gamma_constraint": null, "beta_initializer": {"class_name": "Zeros", "config": {"dtype": "float32"}}, "name": "batch_normalization_42", "beta_regularizer": null, "center": true, "beta_constraint": null, "gamma_initializer": {"class_name": "Ones", "config": {"dtype": "float32"}}, "gamma_regularizer": null}}, {"class_name": "Activation", "name": "activation_42", "inbound_nodes": [[["batch_normalization_42", 0, 0, {}]]], "config": {"trainable": true, "name": "activation_42", "dtype": "float32", "activation": "relu"}}, {"class_name": "Conv2D", "name": "conv2d_47", "inbound_nodes": [[["activation_42", 0, 0, {}]]], "config": {"dilation_rate": [1, 1], "trainable": true, "strides": [1, 1], "filters": 512, "bias_constraint": null, "bias_initializer": {"class_name": "Zeros", "config": {"dtype": "float32"}}, "bias_regularizer": null, "kernel_constraint": null, "padding": "same", "data_format": "channels_last", "activation": "linear", "name": "conv2d_47", "kernel_initializer": {"class_name": "VarianceScaling", "config": {"seed": null, "scale": 2.0, "dtype": "float32", "distribution": "normal", "mode": "fan_in"}}, "kernel_size": [1, 1], "kernel_regularizer": {"class_name": "L1L2", "config": {"l2": 9.999999747378752e-05, "l1": 0.0}}, "use_bias": true, "activity_regularizer": null, "dtype": "float32"}}, {"class_name": "BatchNormalization", "name": "batch_normalization_43", "inbound_nodes": [[["conv2d_47", 0, 0, {}]]], "config": {"momentum": 0.99, "trainable": true, "epsilon": 0.001, "dtype": "float32", "moving_variance_initializer": {"class_name": "Ones", "config": {"dtype": "float32"}}, "moving_mean_initializer": {"class_name": "Zeros", "config": {"dtype": "float32"}}, "scale": true, "axis": [3], "gamma_constraint": null, "beta_initializer": {"class_name": "Zeros", "config": {"dtype": "float32"}}, "name": "batch_normalization_43", "beta_regularizer": null, "center": true, "beta_constraint": null, "gamma_initializer": {"class_name": "Ones", "config": {"dtype": "float32"}}, "gamma_regularizer": null}}, {"class_name": "Activation", "name": "activation_43", "inbound_nodes": [[["batch_normalization_43", 0, 0, {}]]], "config": {"trainable": true, "name": "activation_43", "dtype": "float32", "activation": "relu"}}, {"class_name": "Conv2D", "name": "conv2d_48", "inbound_nodes": [[["activation_43", 0, 0, {}]]], "config": {"dilation_rate": [1, 1], "trainable": true, "strides": [1, 1], "filters": 512, "bias_constraint": null, "bias_initializer": {"class_name": "Zeros", "config": {"dtype": "float32"}}, "bias_regularizer": null, "kernel_constraint": null, "padding": "same", "data_format": "channels_last", "activation": "linear", "name": "conv2d_48", "kernel_initializer": {"class_name": "VarianceScaling", "config": {"seed": null, "scale": 2.0, "dtype": "float32", "distribution": "normal", "mode": "fan_in"}}, "kernel_size": [3, 3], "kernel_regularizer": {"class_name": "L1L2", "config": {"l2": 9.999999747378752e-05, "l1": 0.0}}, "use_bias": true, "activity_regularizer": null, "dtype": "float32"}}, {"class_name": "BatchNormalization", "name": "batch_normalization_44", "inbound_nodes": [[["conv2d_48", 0, 0, {}]]], "config": {"momentum": 0.99, "trainable": true, "epsilon": 0.001, "dtype": "float32", "moving_variance_initializer": {"class_name": "Ones", "config": {"dtype": "float32"}}, "moving_mean_initializer": {"class_name": "Zeros", "config": {"dtype": "float32"}}, "scale": true, "axis": [3], "gamma_constraint": null, "beta_initializer": {"class_name": "Zeros", "config": {"dtype": "float32"}}, "name": "batch_normalization_44", "beta_regularizer": null, "center": true, "beta_constraint": null, "gamma_initializer": {"class_name": "Ones", "config": {"dtype": "float32"}}, "gamma_regularizer": null}}, {"class_name": "Activation", "name": "activation_44", "inbound_nodes": [[["batch_normalization_44", 0, 0, {}]]], "config": {"trainable": true, "name": "activation_44", "dtype": "float32", "activation": "relu"}}, {"class_name": "Conv2D", "name": "conv2d_49", "inbound_nodes": [[["activation_44", 0, 0, {}]]], "config": {"dilation_rate": [1, 1], "trainable": true, "strides": [1, 1], "filters": 2048, "bias_constraint": null, "bias_initializer": {"class_name": "Zeros", "config": {"dtype": "float32"}}, "bias_regularizer": null, "kernel_constraint": null, "padding": "same", "data_format": "channels_last", "activation": "linear", "name": "conv2d_49", "kernel_initializer": {"class_name": "VarianceScaling", "config": {"seed": null, "scale": 2.0, "dtype": "float32", "distribution": "normal", "mode": "fan_in"}}, "kernel_size": [1, 1], "kernel_regularizer": {"class_name": "L1L2", "config": {"l2": 9.999999747378752e-05, "l1": 0.0}}, "use_bias": true, "activity_regularizer": null, "dtype": "float32"}}, {"class_name": "Add", "name": "add_14", "inbound_nodes": [[["add_13", 0, 0, {}], ["conv2d_49", 0, 0, {}]]], "config": {"trainable": true, "name": "add_14", "dtype": "float32"}}, {"class_name": "BatchNormalization", "name": "batch_normalization_45", "inbound_nodes": [[["add_14", 0, 0, {}]]], "config": {"momentum": 0.99, "trainable": true, "epsilon": 0.001, "dtype": "float32", "moving_variance_initializer": {"class_name": "Ones", "config": {"dtype": "float32"}}, "moving_mean_initializer": {"class_name": "Zeros", "config": {"dtype": "float32"}}, "scale": true, "axis": [3], "gamma_constraint": null, "beta_initializer": {"class_name": "Zeros", "config": {"dtype": "float32"}}, "name": "batch_normalization_45", "beta_regularizer": null, "center": true, "beta_constraint": null, "gamma_initializer": {"class_name": "Ones", "config": {"dtype": "float32"}}, "gamma_regularizer": null}}, {"class_name": "Activation", "name": "activation_45", "inbound_nodes": [[["batch_normalization_45", 0, 0, {}]]], "config": {"trainable": true, "name": "activation_45", "dtype": "float32", "activation": "relu"}}, {"class_name": "Conv2D", "name": "conv2d_50", "inbound_nodes": [[["activation_45", 0, 0, {}]]], "config": {"dilation_rate": [1, 1], "trainable": true, "strides": [1, 1], "filters": 512, "bias_constraint": null, "bias_initializer": {"class_name": "Zeros", "config": {"dtype": "float32"}}, "bias_regularizer": null, "kernel_constraint": null, "padding": "same", "data_format": "channels_last", "activation": "linear", "name": "conv2d_50", "kernel_initializer": {"class_name": "VarianceScaling", "config": {"seed": null, "scale": 2.0, "dtype": "float32", "distribution": "normal", "mode": "fan_in"}}, "kernel_size": [1, 1], "kernel_regularizer": {"class_name": "L1L2", "config": {"l2": 9.999999747378752e-05, "l1": 0.0}}, "use_bias": true, "activity_regularizer": null, "dtype": "float32"}}, {"class_name": "BatchNormalization", "name": "batch_normalization_46", "inbound_nodes": [[["conv2d_50", 0, 0, {}]]], "config": {"momentum": 0.99, "trainable": true, "epsilon": 0.001, "dtype": "float32", "moving_variance_initializer": {"class_name": "Ones", "config": {"dtype": "float32"}}, "moving_mean_initializer": {"class_name": "Zeros", "config": {"dtype": "float32"}}, "scale": true, "axis": [3], "gamma_constraint": null, "beta_initializer": {"class_name": "Zeros", "config": {"dtype": "float32"}}, "name": "batch_normalization_46", "beta_regularizer": null, "center": true, "beta_constraint": null, "gamma_initializer": {"class_name": "Ones", "config": {"dtype": "float32"}}, "gamma_regularizer": null}}, {"class_name": "Activation", "name": "activation_46", "inbound_nodes": [[["batch_normalization_46", 0, 0, {}]]], "config": {"trainable": true, "name": "activation_46", "dtype": "float32", "activation": "relu"}}, {"class_name": "Conv2D", "name": "conv2d_51", "inbound_nodes": [[["activation_46", 0, 0, {}]]], "config": {"dilation_rate": [1, 1], "trainable": true, "strides": [1, 1], "filters": 512, "bias_constraint": null, "bias_initializer": {"class_name": "Zeros", "config": {"dtype": "float32"}}, "bias_regularizer": null, "kernel_constraint": null, "padding": "same", "data_format": "channels_last", "activation": "linear", "name": "conv2d_51", "kernel_initializer": {"class_name": "VarianceScaling", "config": {"seed": null, "scale": 2.0, "dtype": "float32", "distribution": "normal", "mode": "fan_in"}}, "kernel_size": [3, 3], "kernel_regularizer": {"class_name": "L1L2", "config": {"l2": 9.999999747378752e-05, "l1": 0.0}}, "use_bias": true, "activity_regularizer": null, "dtype": "float32"}}, {"class_name": "BatchNormalization", "name": "batch_normalization_47", "inbound_nodes": [[["conv2d_51", 0, 0, {}]]], "config": {"momentum": 0.99, "trainable": true, "epsilon": 0.001, "dtype": "float32", "moving_variance_initializer": {"class_name": "Ones", "config": {"dtype": "float32"}}, "moving_mean_initializer": {"class_name": "Zeros", "config": {"dtype": "float32"}}, "scale": true, "axis": [3], "gamma_constraint": null, "beta_initializer": {"class_name": "Zeros", "config": {"dtype": "float32"}}, "name": "batch_normalization_47", "beta_regularizer": null, "center": true, "beta_constraint": null, "gamma_initializer": {"class_name": "Ones", "config": {"dtype": "float32"}}, "gamma_regularizer": null}}, {"class_name": "Activation", "name": "activation_47", "inbound_nodes": [[["batch_normalization_47", 0, 0, {}]]], "config": {"trainable": true, "name": "activation_47", "dtype": "float32", "activation": "relu"}}, {"class_name": "Conv2D", "name": "conv2d_52", "inbound_nodes": [[["activation_47", 0, 0, {}]]], "config": {"dilation_rate": [1, 1], "trainable": true, "strides": [1, 1], "filters": 2048, "bias_constraint": null, "bias_initializer": {"class_name": "Zeros", "config": {"dtype": "float32"}}, "bias_regularizer": null, "kernel_constraint": null, "padding": "same", "data_format": "channels_last", "activation": "linear", "name": "conv2d_52", "kernel_initializer": {"class_name": "VarianceScaling", "config": {"seed": null, "scale": 2.0, "dtype": "float32", "distribution": "normal", "mode": "fan_in"}}, "kernel_size": [1, 1], "kernel_regularizer": {"class_name": "L1L2", "config": {"l2": 9.999999747378752e-05, "l1": 0.0}}, "use_bias": true, "activity_regularizer": null, "dtype": "float32"}}, {"class_name": "Add", "name": "add_15", "inbound_nodes": [[["add_14", 0, 0, {}], ["conv2d_52", 0, 0, {}]]], "config": {"trainable": true, "name": "add_15", "dtype": "float32"}}, {"class_name": "BatchNormalization", "name": "batch_normalization_48", "inbound_nodes": [[["add_15", 0, 0, {}]]], "config": {"momentum": 0.99, "trainable": true, "epsilon": 0.001, "dtype": "float32", "moving_variance_initializer": {"class_name": "Ones", "config": {"dtype": "float32"}}, "moving_mean_initializer": {"class_name": "Zeros", "config": {"dtype": "float32"}}, "scale": true, "axis": [3], "gamma_constraint": null, "beta_initializer": {"class_name": "Zeros", "config": {"dtype": "float32"}}, "name": "batch_normalization_48", "beta_regularizer": null, "center": true, "beta_constraint": null, "gamma_initializer": {"class_name": "Ones", "config": {"dtype": "float32"}}, "gamma_regularizer": null}}, {"class_name": "Activation", "name": "activation_48", "inbound_nodes": [[["batch_normalization_48", 0, 0, {}]]], "config": {"trainable": true, "name": "activation_48", "dtype": "float32", "activation": "relu"}}, {"class_name": "AveragePooling2D", "name": "average_pooling2d", "inbound_nodes": [[["activation_48", 0, 0, {}]]], "config": {"trainable": true, "name": "average_pooling2d", "dtype": "float32", "strides": [1, 1], "padding": "valid", "data_format": "channels_last", "pool_size": [13, 13]}}, {"class_name": "Flatten", "name": "flatten", "inbound_nodes": [[["average_pooling2d", 0, 0, {}]]], "config": {"trainable": true, "name": "flatten", "dtype": "float32", "data_format": "channels_last"}}, {"class_name": "Dense", "name": "dense", "inbound_nodes": [[["flatten", 0, 0, {}]]], "config": {"trainable": true, "dtype": "float32", "kernel_constraint": null, "bias_regularizer": null, "bias_constraint": null, "activation": "softmax", "activity_regularizer": null, "name": "dense", "kernel_initializer": {"class_name": "VarianceScaling", "config": {"seed": null, "scale": 2.0, "dtype": "float32", "distribution": "normal", "mode": "fan_in"}}, "units": 5, "kernel_regularizer": null, "bias_initializer": {"class_name": "Zeros", "config": {"dtype": "float32"}}, "use_bias": true}}], "output_layers": [["dense", 0, 0]]}}, "training_config": {"optimizer_config": {"class_name": "Adam", "config": {"beta_2": 0.9990000128746033, "epsilon": 1e-07, "decay": 0.0, "beta_1": 0.8999999761581421, "amsgrad": false, "lr": 3.162277789670043e-05}}, "loss": "categorical_crossentropy", "metrics": ["accuracy"], "loss_weights": null, "sample_weight_mode": null}, "keras_version": "2.1.6-tf"}, "weightsManifest": [{"paths": ["group1-shard1of23", "group1-shard2of23", "group1-shard3of23", "group1-shard4of23", "group1-shard5of23", "group1-shard6of23", "group1-shard7of23", "group1-shard8of23", "group1-shard9of23", "group1-shard10of23", "group1-shard11of23", "group1-shard12of23", "group1-shard13of23", "group1-shard14of23", "group1-shard15of23", "group1-shard16of23", "group1-shard17of23", "group1-shard18of23", "group1-shard19of23", "group1-shard20of23", "group1-shard21of23", "group1-shard22of23", "group1-shard23of23"], "weights": [{"name": "batch_normalization/gamma", "shape": [64], "dtype": "float32"}, {"name": "batch_normalization/beta", "shape": [64], "dtype": "float32"}, {"name": "batch_normalization/moving_mean", "shape": [64], "dtype": "float32"}, {"name": "batch_normalization/moving_variance", "shape": [64], "dtype": "float32"}, {"name": "batch_normalization_1/gamma", "shape": [64], "dtype": "float32"}, {"name": "batch_normalization_1/beta", "shape": [64], "dtype": "float32"}, {"name": "batch_normalization_1/moving_mean", "shape": [64], "dtype": "float32"}, {"name": "batch_normalization_1/moving_variance", "shape": [64], "dtype": "float32"}, {"name": "batch_normalization_10/gamma", "shape": [128], "dtype": "float32"}, {"name": "batch_normalization_10/beta", "shape": [128], "dtype": "float32"}, {"name": "batch_normalization_10/moving_mean", "shape": [128], "dtype": "float32"}, {"name": "batch_normalization_10/moving_variance", "shape": [128], "dtype": "float32"}, {"name": "batch_normalization_11/gamma", "shape": [128], "dtype": "float32"}, {"name": "batch_normalization_11/beta", "shape": [128], "dtype": "float32"}, {"name": "batch_normalization_11/moving_mean", "shape": [128], "dtype": "float32"}, {"name": "batch_normalization_11/moving_variance", "shape": [128], "dtype": "float32"}, {"name": "batch_normalization_12/gamma", "shape": [512], "dtype": "float32"}, {"name": "batch_normalization_12/beta", "shape": [512], "dtype": "float32"}, {"name": "batch_normalization_12/moving_mean", "shape": [512], "dtype": "float32"}, {"name": "batch_normalization_12/moving_variance", "shape": [512], "dtype": "float32"}, {"name": "batch_normalization_13/gamma", "shape": [128], "dtype": "float32"}, {"name": "batch_normalization_13/beta", "shape": [128], "dtype": "float32"}, {"name": "batch_normalization_13/moving_mean", "shape": [128], "dtype": "float32"}, {"name": "batch_normalization_13/moving_variance", "shape": [128], "dtype": "float32"}, {"name": "batch_normalization_14/gamma", "shape": [128], "dtype": "float32"}, {"name": "batch_normalization_14/beta", "shape": [128], "dtype": "float32"}, {"name": "batch_normalization_14/moving_mean", "shape": [128], "dtype": "float32"}, {"name": "batch_normalization_14/moving_variance", "shape": [128], "dtype": "float32"}, {"name": "batch_normalization_15/gamma", "shape": [512], "dtype": "float32"}, {"name": "batch_normalization_15/beta", "shape": [512], "dtype": "float32"}, {"name": "batch_normalization_15/moving_mean", "shape": [512], "dtype": "float32"}, {"name": "batch_normalization_15/moving_variance", "shape": [512], "dtype": "float32"}, {"name": "batch_normalization_16/gamma", "shape": [128], "dtype": "float32"}, {"name": "batch_normalization_16/beta", "shape": [128], "dtype": "float32"}, {"name": "batch_normalization_16/moving_mean", "shape": [128], "dtype": "float32"}, {"name": "batch_normalization_16/moving_variance", "shape": [128], "dtype": "float32"}, {"name": "batch_normalization_17/gamma", "shape": [128], "dtype": "float32"}, {"name": "batch_normalization_17/beta", "shape": [128], "dtype": "float32"}, {"name": "batch_normalization_17/moving_mean", "shape": [128], "dtype": "float32"}, {"name": "batch_normalization_17/moving_variance", "shape": [128], "dtype": "float32"}, {"name": "batch_normalization_18/gamma", "shape": [512], "dtype": "float32"}, {"name": "batch_normalization_18/beta", "shape": [512], "dtype": "float32"}, {"name": "batch_normalization_18/moving_mean", "shape": [512], "dtype": "float32"}, {"name": "batch_normalization_18/moving_variance", "shape": [512], "dtype": "float32"}, {"name": "batch_normalization_19/gamma", "shape": [128], "dtype": "float32"}, {"name": "batch_normalization_19/beta", "shape": [128], "dtype": "float32"}, {"name": "batch_normalization_19/moving_mean", "shape": [128], "dtype": "float32"}, {"name": "batch_normalization_19/moving_variance", "shape": [128], "dtype": "float32"}, {"name": "batch_normalization_2/gamma", "shape": [64], "dtype": "float32"}, {"name": "batch_normalization_2/beta", "shape": [64], "dtype": "float32"}, {"name": "batch_normalization_2/moving_mean", "shape": [64], "dtype": "float32"}, {"name": "batch_normalization_2/moving_variance", "shape": [64], "dtype": "float32"}, {"name": "batch_normalization_20/gamma", "shape": [128], "dtype": "float32"}, {"name": "batch_normalization_20/beta", "shape": [128], "dtype": "float32"}, {"name": "batch_normalization_20/moving_mean", "shape": [128], "dtype": "float32"}, {"name": "batch_normalization_20/moving_variance", "shape": [128], "dtype": "float32"}, {"name": "batch_normalization_21/gamma", "shape": [512], "dtype": "float32"}, {"name": "batch_normalization_21/beta", "shape": [512], "dtype": "float32"}, {"name": "batch_normalization_21/moving_mean", "shape": [512], "dtype": "float32"}, {"name": "batch_normalization_21/moving_variance", "shape": [512], "dtype": "float32"}, {"name": "batch_normalization_22/gamma", "shape": [256], "dtype": "float32"}, {"name": "batch_normalization_22/beta", "shape": [256], "dtype": "float32"}, {"name": "batch_normalization_22/moving_mean", "shape": [256], "dtype": "float32"}, {"name": "batch_normalization_22/moving_variance", "shape": [256], "dtype": "float32"}, {"name": "batch_normalization_23/gamma", "shape": [256], "dtype": "float32"}, {"name": "batch_normalization_23/beta", "shape": [256], "dtype": "float32"}, {"name": "batch_normalization_23/moving_mean", "shape": [256], "dtype": "float32"}, {"name": "batch_normalization_23/moving_variance", "shape": [256], "dtype": "float32"}, {"name": "batch_normalization_24/gamma", "shape": [1024], "dtype": "float32"}, {"name": "batch_normalization_24/beta", "shape": [1024], "dtype": "float32"}, {"name": "batch_normalization_24/moving_mean", "shape": [1024], "dtype": "float32"}, {"name": "batch_normalization_24/moving_variance", "shape": [1024], "dtype": "float32"}, {"name": "batch_normalization_25/gamma", "shape": [256], "dtype": "float32"}, {"name": "batch_normalization_25/beta", "shape": [256], "dtype": "float32"}, {"name": "batch_normalization_25/moving_mean", "shape": [256], "dtype": "float32"}, {"name": "batch_normalization_25/moving_variance", "shape": [256], "dtype": "float32"}, {"name": "batch_normalization_26/gamma", "shape": [256], "dtype": "float32"}, {"name": "batch_normalization_26/beta", "shape": [256], "dtype": "float32"}, {"name": "batch_normalization_26/moving_mean", "shape": [256], "dtype": "float32"}, {"name": "batch_normalization_26/moving_variance", "shape": [256], "dtype": "float32"}, {"name": "batch_normalization_27/gamma", "shape": [1024], "dtype": "float32"}, {"name": "batch_normalization_27/beta", "shape": [1024], "dtype": "float32"}, {"name": "batch_normalization_27/moving_mean", "shape": [1024], "dtype": "float32"}, {"name": "batch_normalization_27/moving_variance", "shape": [1024], "dtype": "float32"}, {"name": "batch_normalization_28/gamma", "shape": [256], "dtype": "float32"}, {"name": "batch_normalization_28/beta", "shape": [256], "dtype": "float32"}, {"name": "batch_normalization_28/moving_mean", "shape": [256], "dtype": "float32"}, {"name": "batch_normalization_28/moving_variance", "shape": [256], "dtype": "float32"}, {"name": "batch_normalization_29/gamma", "shape": [256], "dtype": "float32"}, {"name": "batch_normalization_29/beta", "shape": [256], "dtype": "float32"}, {"name": "batch_normalization_29/moving_mean", "shape": [256], "dtype": "float32"}, {"name": "batch_normalization_29/moving_variance", "shape": [256], "dtype": "float32"}, {"name": "batch_normalization_3/gamma", "shape": [256], "dtype": "float32"}, {"name": "batch_normalization_3/beta", "shape": [256], "dtype": "float32"}, {"name": "batch_normalization_3/moving_mean", "shape": [256], "dtype": "float32"}, {"name": "batch_normalization_3/moving_variance", "shape": [256], "dtype": "float32"}, {"name": "batch_normalization_30/gamma", "shape": [1024], "dtype": "float32"}, {"name": "batch_normalization_30/beta", "shape": [1024], "dtype": "float32"}, {"name": "batch_normalization_30/moving_mean", "shape": [1024], "dtype": "float32"}, {"name": "batch_normalization_30/moving_variance", "shape": [1024], "dtype": "float32"}, {"name": "batch_normalization_31/gamma", "shape": [256], "dtype": "float32"}, {"name": "batch_normalization_31/beta", "shape": [256], "dtype": "float32"}, {"name": "batch_normalization_31/moving_mean", "shape": [256], "dtype": "float32"}, {"name": "batch_normalization_31/moving_variance", "shape": [256], "dtype": "float32"}, {"name": "batch_normalization_32/gamma", "shape": [256], "dtype": "float32"}, {"name": "batch_normalization_32/beta", "shape": [256], "dtype": "float32"}, {"name": "batch_normalization_32/moving_mean", "shape": [256], "dtype": "float32"}, {"name": "batch_normalization_32/moving_variance", "shape": [256], "dtype": "float32"}, {"name": "batch_normalization_33/gamma", "shape": [1024], "dtype": "float32"}, {"name": "batch_normalization_33/beta", "shape": [1024], "dtype": "float32"}, {"name": "batch_normalization_33/moving_mean", "shape": [1024], "dtype": "float32"}, {"name": "batch_normalization_33/moving_variance", "shape": [1024], "dtype": "float32"}, {"name": "batch_normalization_34/gamma", "shape": [256], "dtype": "float32"}, {"name": "batch_normalization_34/beta", "shape": [256], "dtype": "float32"}, {"name": "batch_normalization_34/moving_mean", "shape": [256], "dtype": "float32"}, {"name": "batch_normalization_34/moving_variance", "shape": [256], "dtype": "float32"}, {"name": "batch_normalization_35/gamma", "shape": [256], "dtype": "float32"}, {"name": "batch_normalization_35/beta", "shape": [256], "dtype": "float32"}, {"name": "batch_normalization_35/moving_mean", "shape": [256], "dtype": "float32"}, {"name": "batch_normalization_35/moving_variance", "shape": [256], "dtype": "float32"}, {"name": "batch_normalization_36/gamma", "shape": [1024], "dtype": "float32"}, {"name": "batch_normalization_36/beta", "shape": [1024], "dtype": "float32"}, {"name": "batch_normalization_36/moving_mean", "shape": [1024], "dtype": "float32"}, {"name": "batch_normalization_36/moving_variance", "shape": [1024], "dtype": "float32"}, {"name": "batch_normalization_37/gamma", "shape": [256], "dtype": "float32"}, {"name": "batch_normalization_37/beta", "shape": [256], "dtype": "float32"}, {"name": "batch_normalization_37/moving_mean", "shape": [256], "dtype": "float32"}, {"name": "batch_normalization_37/moving_variance", "shape": [256], "dtype": "float32"}, {"name": "batch_normalization_38/gamma", "shape": [256], "dtype": "float32"}, {"name": "batch_normalization_38/beta", "shape": [256], "dtype": "float32"}, {"name": "batch_normalization_38/moving_mean", "shape": [256], "dtype": "float32"}, {"name": "batch_normalization_38/moving_variance", "shape": [256], "dtype": "float32"}, {"name": "batch_normalization_39/gamma", "shape": [1024], "dtype": "float32"}, {"name": "batch_normalization_39/beta", "shape": [1024], "dtype": "float32"}, {"name": "batch_normalization_39/moving_mean", "shape": [1024], "dtype": "float32"}, {"name": "batch_normalization_39/moving_variance", "shape": [1024], "dtype": "float32"}, {"name": "batch_normalization_4/gamma", "shape": [64], "dtype": "float32"}, {"name": "batch_normalization_4/beta", "shape": [64], "dtype": "float32"}, {"name": "batch_normalization_4/moving_mean", "shape": [64], "dtype": "float32"}, {"name": "batch_normalization_4/moving_variance", "shape": [64], "dtype": "float32"}, {"name": "batch_normalization_40/gamma", "shape": [512], "dtype": "float32"}, {"name": "batch_normalization_40/beta", "shape": [512], "dtype": "float32"}, {"name": "batch_normalization_40/moving_mean", "shape": [512], "dtype": "float32"}, {"name": "batch_normalization_40/moving_variance", "shape": [512], "dtype": "float32"}, {"name": "batch_normalization_41/gamma", "shape": [512], "dtype": "float32"}, {"name": "batch_normalization_41/beta", "shape": [512], "dtype": "float32"}, {"name": "batch_normalization_41/moving_mean", "shape": [512], "dtype": "float32"}, {"name": "batch_normalization_41/moving_variance", "shape": [512], "dtype": "float32"}, {"name": "batch_normalization_42/gamma", "shape": [2048], "dtype": "float32"}, {"name": "batch_normalization_42/beta", "shape": [2048], "dtype": "float32"}, {"name": "batch_normalization_42/moving_mean", "shape": [2048], "dtype": "float32"}, {"name": "batch_normalization_42/moving_variance", "shape": [2048], "dtype": "float32"}, {"name": "batch_normalization_43/gamma", "shape": [512], "dtype": "float32"}, {"name": "batch_normalization_43/beta", "shape": [512], "dtype": "float32"}, {"name": "batch_normalization_43/moving_mean", "shape": [512], "dtype": "float32"}, {"name": "batch_normalization_43/moving_variance", "shape": [512], "dtype": "float32"}, {"name": "batch_normalization_44/gamma", "shape": [512], "dtype": "float32"}, {"name": "batch_normalization_44/beta", "shape": [512], "dtype": "float32"}, {"name": "batch_normalization_44/moving_mean", "shape": [512], "dtype": "float32"}, {"name": "batch_normalization_44/moving_variance", "shape": [512], "dtype": "float32"}, {"name": "batch_normalization_45/gamma", "shape": [2048], "dtype": "float32"}, {"name": "batch_normalization_45/beta", "shape": [2048], "dtype": "float32"}, {"name": "batch_normalization_45/moving_mean", "shape": [2048], "dtype": "float32"}, {"name": "batch_normalization_45/moving_variance", "shape": [2048], "dtype": "float32"}, {"name": "batch_normalization_46/gamma", "shape": [512], "dtype": "float32"}, {"name": "batch_normalization_46/beta", "shape": [512], "dtype": "float32"}, {"name": "batch_normalization_46/moving_mean", "shape": [512], "dtype": "float32"}, {"name": "batch_normalization_46/moving_variance", "shape": [512], "dtype": "float32"}, {"name": "batch_normalization_47/gamma", "shape": [512], "dtype": "float32"}, {"name": "batch_normalization_47/beta", "shape": [512], "dtype": "float32"}, {"name": "batch_normalization_47/moving_mean", "shape": [512], "dtype": "float32"}, {"name": "batch_normalization_47/moving_variance", "shape": [512], "dtype": "float32"}, {"name": "batch_normalization_48/gamma", "shape": [2048], "dtype": "float32"}, {"name": "batch_normalization_48/beta", "shape": [2048], "dtype": "float32"}, {"name": "batch_normalization_48/moving_mean", "shape": [2048], "dtype": "float32"}, {"name": "batch_normalization_48/moving_variance", "shape": [2048], "dtype": "float32"}, {"name": "batch_normalization_5/gamma", "shape": [64], "dtype": "float32"}, {"name": "batch_normalization_5/beta", "shape": [64], "dtype": "float32"}, {"name": "batch_normalization_5/moving_mean", "shape": [64], "dtype": "float32"}, {"name": "batch_normalization_5/moving_variance", "shape": [64], "dtype": "float32"}, {"name": "batch_normalization_6/gamma", "shape": [256], "dtype": "float32"}, {"name": "batch_normalization_6/beta", "shape": [256], "dtype": "float32"}, {"name": "batch_normalization_6/moving_mean", "shape": [256], "dtype": "float32"}, {"name": "batch_normalization_6/moving_variance", "shape": [256], "dtype": "float32"}, {"name": "batch_normalization_7/gamma", "shape": [64], "dtype": "float32"}, {"name": "batch_normalization_7/beta", "shape": [64], "dtype": "float32"}, {"name": "batch_normalization_7/moving_mean", "shape": [64], "dtype": "float32"}, {"name": "batch_normalization_7/moving_variance", "shape": [64], "dtype": "float32"}, {"name": "batch_normalization_8/gamma", "shape": [64], "dtype": "float32"}, {"name": "batch_normalization_8/beta", "shape": [64], "dtype": "float32"}, {"name": "batch_normalization_8/moving_mean", "shape": [64], "dtype": "float32"}, {"name": "batch_normalization_8/moving_variance", "shape": [64], "dtype": "float32"}, {"name": "batch_normalization_9/gamma", "shape": [256], "dtype": "float32"}, {"name": "batch_normalization_9/beta", "shape": [256], "dtype": "float32"}, {"name": "batch_normalization_9/moving_mean", "shape": [256], "dtype": "float32"}, {"name": "batch_normalization_9/moving_variance", "shape": [256], "dtype": "float32"}, {"name": "conv2d/kernel", "shape": [7, 7, 1, 64], "dtype": "float32"}, {"name": "conv2d/bias", "shape": [64], "dtype": "float32"}, {"name": "conv2d_1/kernel", "shape": [1, 1, 64, 64], "dtype": "float32"}, {"name": "conv2d_1/bias", "shape": [64], "dtype": "float32"}, {"name": "conv2d_10/kernel", "shape": [1, 1, 64, 256], "dtype": "float32"}, {"name": "conv2d_10/bias", "shape": [256], "dtype": "float32"}, {"name": "conv2d_11/kernel", "shape": [1, 1, 256, 128], "dtype": "float32"}, {"name": "conv2d_11/bias", "shape": [128], "dtype": "float32"}, {"name": "conv2d_12/kernel", "shape": [3, 3, 128, 128], "dtype": "float32"}, {"name": "conv2d_12/bias", "shape": [128], "dtype": "float32"}, {"name": "conv2d_13/kernel", "shape": [1, 1, 128, 512], "dtype": "float32"}, {"name": "conv2d_13/bias", "shape": [512], "dtype": "float32"}, {"name": "conv2d_14/kernel", "shape": [1, 1, 256, 512], "dtype": "float32"}, {"name": "conv2d_14/bias", "shape": [512], "dtype": "float32"}, {"name": "conv2d_15/kernel", "shape": [1, 1, 512, 128], "dtype": "float32"}, {"name": "conv2d_15/bias", "shape": [128], "dtype": "float32"}, {"name": "conv2d_16/kernel", "shape": [3, 3, 128, 128], "dtype": "float32"}, {"name": "conv2d_16/bias", "shape": [128], "dtype": "float32"}, {"name": "conv2d_17/kernel", "shape": [1, 1, 128, 512], "dtype": "float32"}, {"name": "conv2d_17/bias", "shape": [512], "dtype": "float32"}, {"name": "conv2d_18/kernel", "shape": [1, 1, 512, 128], "dtype": "float32"}, {"name": "conv2d_18/bias", "shape": [128], "dtype": "float32"}, {"name": "conv2d_19/kernel", "shape": [3, 3, 128, 128], "dtype": "float32"}, {"name": "conv2d_19/bias", "shape": [128], "dtype": "float32"}, {"name": "conv2d_2/kernel", "shape": [3, 3, 64, 64], "dtype": "float32"}, {"name": "conv2d_2/bias", "shape": [64], "dtype": "float32"}, {"name": "conv2d_20/kernel", "shape": [1, 1, 128, 512], "dtype": "float32"}, {"name": "conv2d_20/bias", "shape": [512], "dtype": "float32"}, {"name": "conv2d_21/kernel", "shape": [1, 1, 512, 128], "dtype": "float32"}, {"name": "conv2d_21/bias", "shape": [128], "dtype": "float32"}, {"name": "conv2d_22/kernel", "shape": [3, 3, 128, 128], "dtype": "float32"}, {"name": "conv2d_22/bias", "shape": [128], "dtype": "float32"}, {"name": "conv2d_23/kernel", "shape": [1, 1, 128, 512], "dtype": "float32"}, {"name": "conv2d_23/bias", "shape": [512], "dtype": "float32"}, {"name": "conv2d_24/kernel", "shape": [1, 1, 512, 256], "dtype": "float32"}, {"name": "conv2d_24/bias", "shape": [256], "dtype": "float32"}, {"name": "conv2d_25/kernel", "shape": [3, 3, 256, 256], "dtype": "float32"}, {"name": "conv2d_25/bias", "shape": [256], "dtype": "float32"}, {"name": "conv2d_26/kernel", "shape": [1, 1, 256, 1024], "dtype": "float32"}, {"name": "conv2d_26/bias", "shape": [1024], "dtype": "float32"}, {"name": "conv2d_27/kernel", "shape": [1, 1, 512, 1024], "dtype": "float32"}, {"name": "conv2d_27/bias", "shape": [1024], "dtype": "float32"}, {"name": "conv2d_28/kernel", "shape": [1, 1, 1024, 256], "dtype": "float32"}, {"name": "conv2d_28/bias", "shape": [256], "dtype": "float32"}, {"name": "conv2d_29/kernel", "shape": [3, 3, 256, 256], "dtype": "float32"}, {"name": "conv2d_29/bias", "shape": [256], "dtype": "float32"}, {"name": "conv2d_3/kernel", "shape": [1, 1, 64, 256], "dtype": "float32"}, {"name": "conv2d_3/bias", "shape": [256], "dtype": "float32"}, {"name": "conv2d_30/kernel", "shape": [1, 1, 256, 1024], "dtype": "float32"}, {"name": "conv2d_30/bias", "shape": [1024], "dtype": "float32"}, {"name": "conv2d_31/kernel", "shape": [1, 1, 1024, 256], "dtype": "float32"}, {"name": "conv2d_31/bias", "shape": [256], "dtype": "float32"}, {"name": "conv2d_32/kernel", "shape": [3, 3, 256, 256], "dtype": "float32"}, {"name": "conv2d_32/bias", "shape": [256], "dtype": "float32"}, {"name": "conv2d_33/kernel", "shape": [1, 1, 256, 1024], "dtype": "float32"}, {"name": "conv2d_33/bias", "shape": [1024], "dtype": "float32"}, {"name": "conv2d_34/kernel", "shape": [1, 1, 1024, 256], "dtype": "float32"}, {"name": "conv2d_34/bias", "shape": [256], "dtype": "float32"}, {"name": "conv2d_35/kernel", "shape": [3, 3, 256, 256], "dtype": "float32"}, {"name": "conv2d_35/bias", "shape": [256], "dtype": "float32"}, {"name": "conv2d_36/kernel", "shape": [1, 1, 256, 1024], "dtype": "float32"}, {"name": "conv2d_36/bias", "shape": [1024], "dtype": "float32"}, {"name": "conv2d_37/kernel", "shape": [1, 1, 1024, 256], "dtype": "float32"}, {"name": "conv2d_37/bias", "shape": [256], "dtype": "float32"}, {"name": "conv2d_38/kernel", "shape": [3, 3, 256, 256], "dtype": "float32"}, {"name": "conv2d_38/bias", "shape": [256], "dtype": "float32"}, {"name": "conv2d_39/kernel", "shape": [1, 1, 256, 1024], "dtype": "float32"}, {"name": "conv2d_39/bias", "shape": [1024], "dtype": "float32"}, {"name": "conv2d_4/kernel", "shape": [1, 1, 64, 256], "dtype": "float32"}, {"name": "conv2d_4/bias", "shape": [256], "dtype": "float32"}, {"name": "conv2d_40/kernel", "shape": [1, 1, 1024, 256], "dtype": "float32"}, {"name": "conv2d_40/bias", "shape": [256], "dtype": "float32"}, {"name": "conv2d_41/kernel", "shape": [3, 3, 256, 256], "dtype": "float32"}, {"name": "conv2d_41/bias", "shape": [256], "dtype": "float32"}, {"name": "conv2d_42/kernel", "shape": [1, 1, 256, 1024], "dtype": "float32"}, {"name": "conv2d_42/bias", "shape": [1024], "dtype": "float32"}, {"name": "conv2d_43/kernel", "shape": [1, 1, 1024, 512], "dtype": "float32"}, {"name": "conv2d_43/bias", "shape": [512], "dtype": "float32"}, {"name": "conv2d_44/kernel", "shape": [3, 3, 512, 512], "dtype": "float32"}, {"name": "conv2d_44/bias", "shape": [512], "dtype": "float32"}, {"name": "conv2d_45/kernel", "shape": [1, 1, 512, 2048], "dtype": "float32"}, {"name": "conv2d_45/bias", "shape": [2048], "dtype": "float32"}, {"name": "conv2d_46/kernel", "shape": [1, 1, 1024, 2048], "dtype": "float32"}, {"name": "conv2d_46/bias", "shape": [2048], "dtype": "float32"}, {"name": "conv2d_47/kernel", "shape": [1, 1, 2048, 512], "dtype": "float32"}, {"name": "conv2d_47/bias", "shape": [512], "dtype": "float32"}, {"name": "conv2d_48/kernel", "shape": [3, 3, 512, 512], "dtype": "float32"}, {"name": "conv2d_48/bias", "shape": [512], "dtype": "float32"}, {"name": "conv2d_49/kernel", "shape": [1, 1, 512, 2048], "dtype": "float32"}, {"name": "conv2d_49/bias", "shape": [2048], "dtype": "float32"}, {"name": "conv2d_5/kernel", "shape": [1, 1, 256, 64], "dtype": "float32"}, {"name": "conv2d_5/bias", "shape": [64], "dtype": "float32"}, {"name": "conv2d_50/kernel", "shape": [1, 1, 2048, 512], "dtype": "float32"}, {"name": "conv2d_50/bias", "shape": [512], "dtype": "float32"}, {"name": "conv2d_51/kernel", "shape": [3, 3, 512, 512], "dtype": "float32"}, {"name": "conv2d_51/bias", "shape": [512], "dtype": "float32"}, {"name": "conv2d_52/kernel", "shape": [1, 1, 512, 2048], "dtype": "float32"}, {"name": "conv2d_52/bias", "shape": [2048], "dtype": "float32"}, {"name": "conv2d_6/kernel", "shape": [3, 3, 64, 64], "dtype": "float32"}, {"name": "conv2d_6/bias", "shape": [64], "dtype": "float32"}, {"name": "conv2d_7/kernel", "shape": [1, 1, 64, 256], "dtype": "float32"}, {"name": "conv2d_7/bias", "shape": [256], "dtype": "float32"}, {"name": "conv2d_8/kernel", "shape": [1, 1, 256, 64], "dtype": "float32"}, {"name": "conv2d_8/bias", "shape": [64], "dtype": "float32"}, {"name": "conv2d_9/kernel", "shape": [3, 3, 64, 64], "dtype": "float32"}, {"name": "conv2d_9/bias", "shape": [64], "dtype": "float32"}, {"name": "dense/kernel", "shape": [2048, 5], "dtype": "float32"}, {"name": "dense/bias", "shape": [5], "dtype": "float32"}]}]}